<?xml version="1.0" ?>
<net name="2022.5.13" version="10">
	<layers>
		<layer id="0" name="input" type="Parameter" version="opset1">
			<data shape="1, 3, 480, 480" element_type="f16"/>
			<output>
				<port id="0" precision="FP16" names="input">
					<dim>1</dim>
					<dim>3</dim>
					<dim>480</dim>
					<dim>480</dim>
				</port>
			</output>
		</layer>
		<layer id="1" name="Constant_494" type="Const" version="opset1">
			<data element_type="f16" shape="1, 3, 60, 60, 16" offset="0" size="345600"/>
			<output>
				<port id="0" precision="FP16" names="onnx::Add_932">
					<dim>1</dim>
					<dim>3</dim>
					<dim>60</dim>
					<dim>60</dim>
					<dim>16</dim>
				</port>
			</output>
		</layer>
		<layer id="2" name="model.0.stem_1.conv.weight" type="Const" version="opset1">
			<data element_type="f16" shape="32, 3, 3, 3" offset="345600" size="1728"/>
			<output>
				<port id="0" precision="FP16" names="model.0.stem_1.conv.weight">
					<dim>32</dim>
					<dim>3</dim>
					<dim>3</dim>
					<dim>3</dim>
				</port>
			</output>
		</layer>
		<layer id="3" name="Conv_0/WithoutBiases" type="Convolution" version="opset1">
			<data strides="2, 2" dilations="1, 1" pads_begin="1, 1" pads_end="1, 1" auto_pad="explicit"/>
			<input>
				<port id="0" precision="FP16">
					<dim>1</dim>
					<dim>3</dim>
					<dim>480</dim>
					<dim>480</dim>
				</port>
				<port id="1" precision="FP16">
					<dim>32</dim>
					<dim>3</dim>
					<dim>3</dim>
					<dim>3</dim>
				</port>
			</input>
			<output>
				<port id="2" precision="FP16">
					<dim>1</dim>
					<dim>32</dim>
					<dim>240</dim>
					<dim>240</dim>
				</port>
			</output>
		</layer>
		<layer id="4" name="Conv_0/Dims9303" type="Const" version="opset1">
			<data element_type="f16" shape="1, 32, 1, 1" offset="347328" size="64"/>
			<output>
				<port id="0" precision="FP16">
					<dim>1</dim>
					<dim>32</dim>
					<dim>1</dim>
					<dim>1</dim>
				</port>
			</output>
		</layer>
		<layer id="5" name="Conv_0" type="Add" version="opset1">
			<data auto_broadcast="numpy"/>
			<input>
				<port id="0" precision="FP16">
					<dim>1</dim>
					<dim>32</dim>
					<dim>240</dim>
					<dim>240</dim>
				</port>
				<port id="1" precision="FP16">
					<dim>1</dim>
					<dim>32</dim>
					<dim>1</dim>
					<dim>1</dim>
				</port>
			</input>
			<output>
				<port id="2" precision="FP16" names="onnx::Sigmoid_370">
					<dim>1</dim>
					<dim>32</dim>
					<dim>240</dim>
					<dim>240</dim>
				</port>
			</output>
		</layer>
		<layer id="6" name="Mul_2" type="Swish" version="opset4">
			<input>
				<port id="0" precision="FP16">
					<dim>1</dim>
					<dim>32</dim>
					<dim>240</dim>
					<dim>240</dim>
				</port>
			</input>
			<output>
				<port id="1" precision="FP16" names="input.1">
					<dim>1</dim>
					<dim>32</dim>
					<dim>240</dim>
					<dim>240</dim>
				</port>
			</output>
		</layer>
		<layer id="7" name="model.0.stem_2a.conv.weight" type="Const" version="opset1">
			<data element_type="f16" shape="16, 32, 1, 1" offset="347392" size="1024"/>
			<output>
				<port id="0" precision="FP16" names="model.0.stem_2a.conv.weight">
					<dim>16</dim>
					<dim>32</dim>
					<dim>1</dim>
					<dim>1</dim>
				</port>
			</output>
		</layer>
		<layer id="8" name="Conv_3/WithoutBiases" type="Convolution" version="opset1">
			<data strides="1, 1" dilations="1, 1" pads_begin="0, 0" pads_end="0, 0" auto_pad="explicit"/>
			<input>
				<port id="0" precision="FP16">
					<dim>1</dim>
					<dim>32</dim>
					<dim>240</dim>
					<dim>240</dim>
				</port>
				<port id="1" precision="FP16">
					<dim>16</dim>
					<dim>32</dim>
					<dim>1</dim>
					<dim>1</dim>
				</port>
			</input>
			<output>
				<port id="2" precision="FP16">
					<dim>1</dim>
					<dim>16</dim>
					<dim>240</dim>
					<dim>240</dim>
				</port>
			</output>
		</layer>
		<layer id="9" name="Conv_3/Dims9339" type="Const" version="opset1">
			<data element_type="f16" shape="1, 16, 1, 1" offset="348416" size="32"/>
			<output>
				<port id="0" precision="FP16">
					<dim>1</dim>
					<dim>16</dim>
					<dim>1</dim>
					<dim>1</dim>
				</port>
			</output>
		</layer>
		<layer id="10" name="Conv_3" type="Add" version="opset1">
			<data auto_broadcast="numpy"/>
			<input>
				<port id="0" precision="FP16">
					<dim>1</dim>
					<dim>16</dim>
					<dim>240</dim>
					<dim>240</dim>
				</port>
				<port id="1" precision="FP16">
					<dim>1</dim>
					<dim>16</dim>
					<dim>1</dim>
					<dim>1</dim>
				</port>
			</input>
			<output>
				<port id="2" precision="FP16" names="onnx::Sigmoid_373">
					<dim>1</dim>
					<dim>16</dim>
					<dim>240</dim>
					<dim>240</dim>
				</port>
			</output>
		</layer>
		<layer id="11" name="Mul_5" type="Swish" version="opset4">
			<input>
				<port id="0" precision="FP16">
					<dim>1</dim>
					<dim>16</dim>
					<dim>240</dim>
					<dim>240</dim>
				</port>
			</input>
			<output>
				<port id="1" precision="FP16" names="input.4">
					<dim>1</dim>
					<dim>16</dim>
					<dim>240</dim>
					<dim>240</dim>
				</port>
			</output>
		</layer>
		<layer id="12" name="model.0.stem_2b.conv.weight" type="Const" version="opset1">
			<data element_type="f16" shape="32, 16, 3, 3" offset="348448" size="9216"/>
			<output>
				<port id="0" precision="FP16" names="model.0.stem_2b.conv.weight">
					<dim>32</dim>
					<dim>16</dim>
					<dim>3</dim>
					<dim>3</dim>
				</port>
			</output>
		</layer>
		<layer id="13" name="Conv_6/WithoutBiases" type="Convolution" version="opset1">
			<data strides="2, 2" dilations="1, 1" pads_begin="1, 1" pads_end="1, 1" auto_pad="explicit"/>
			<input>
				<port id="0" precision="FP16">
					<dim>1</dim>
					<dim>16</dim>
					<dim>240</dim>
					<dim>240</dim>
				</port>
				<port id="1" precision="FP16">
					<dim>32</dim>
					<dim>16</dim>
					<dim>3</dim>
					<dim>3</dim>
				</port>
			</input>
			<output>
				<port id="2" precision="FP16">
					<dim>1</dim>
					<dim>32</dim>
					<dim>120</dim>
					<dim>120</dim>
				</port>
			</output>
		</layer>
		<layer id="14" name="Conv_6/Dims9477" type="Const" version="opset1">
			<data element_type="f16" shape="1, 32, 1, 1" offset="357664" size="64"/>
			<output>
				<port id="0" precision="FP16">
					<dim>1</dim>
					<dim>32</dim>
					<dim>1</dim>
					<dim>1</dim>
				</port>
			</output>
		</layer>
		<layer id="15" name="Conv_6" type="Add" version="opset1">
			<data auto_broadcast="numpy"/>
			<input>
				<port id="0" precision="FP16">
					<dim>1</dim>
					<dim>32</dim>
					<dim>120</dim>
					<dim>120</dim>
				</port>
				<port id="1" precision="FP16">
					<dim>1</dim>
					<dim>32</dim>
					<dim>1</dim>
					<dim>1</dim>
				</port>
			</input>
			<output>
				<port id="2" precision="FP16" names="onnx::Sigmoid_376">
					<dim>1</dim>
					<dim>32</dim>
					<dim>120</dim>
					<dim>120</dim>
				</port>
			</output>
		</layer>
		<layer id="16" name="Mul_8" type="Swish" version="opset4">
			<input>
				<port id="0" precision="FP16">
					<dim>1</dim>
					<dim>32</dim>
					<dim>120</dim>
					<dim>120</dim>
				</port>
			</input>
			<output>
				<port id="1" precision="FP16" names="onnx::Concat_378">
					<dim>1</dim>
					<dim>32</dim>
					<dim>120</dim>
					<dim>120</dim>
				</port>
			</output>
		</layer>
		<layer id="17" name="MaxPool_9" type="MaxPool" version="opset1">
			<data strides="2, 2" pads_begin="0, 0" pads_end="0, 0" kernel="2, 2" rounding_type="ceil" auto_pad="explicit"/>
			<input>
				<port id="0" precision="FP16">
					<dim>1</dim>
					<dim>32</dim>
					<dim>240</dim>
					<dim>240</dim>
				</port>
			</input>
			<output>
				<port id="1" precision="FP16" names="onnx::Concat_379">
					<dim>1</dim>
					<dim>32</dim>
					<dim>120</dim>
					<dim>120</dim>
				</port>
			</output>
		</layer>
		<layer id="18" name="Concat_10" type="Concat" version="opset1">
			<data axis="1"/>
			<input>
				<port id="0" precision="FP16">
					<dim>1</dim>
					<dim>32</dim>
					<dim>120</dim>
					<dim>120</dim>
				</port>
				<port id="1" precision="FP16">
					<dim>1</dim>
					<dim>32</dim>
					<dim>120</dim>
					<dim>120</dim>
				</port>
			</input>
			<output>
				<port id="2" precision="FP16" names="input.8">
					<dim>1</dim>
					<dim>64</dim>
					<dim>120</dim>
					<dim>120</dim>
				</port>
			</output>
		</layer>
		<layer id="19" name="model.0.stem_3.conv.weight" type="Const" version="opset1">
			<data element_type="f16" shape="32, 64, 1, 1" offset="357728" size="4096"/>
			<output>
				<port id="0" precision="FP16" names="model.0.stem_3.conv.weight">
					<dim>32</dim>
					<dim>64</dim>
					<dim>1</dim>
					<dim>1</dim>
				</port>
			</output>
		</layer>
		<layer id="20" name="Conv_11/WithoutBiases" type="Convolution" version="opset1">
			<data strides="1, 1" dilations="1, 1" pads_begin="0, 0" pads_end="0, 0" auto_pad="explicit"/>
			<input>
				<port id="0" precision="FP16">
					<dim>1</dim>
					<dim>64</dim>
					<dim>120</dim>
					<dim>120</dim>
				</port>
				<port id="1" precision="FP16">
					<dim>32</dim>
					<dim>64</dim>
					<dim>1</dim>
					<dim>1</dim>
				</port>
			</input>
			<output>
				<port id="2" precision="FP16">
					<dim>1</dim>
					<dim>32</dim>
					<dim>120</dim>
					<dim>120</dim>
				</port>
			</output>
		</layer>
		<layer id="21" name="Conv_11/Dims9573" type="Const" version="opset1">
			<data element_type="f16" shape="1, 32, 1, 1" offset="361824" size="64"/>
			<output>
				<port id="0" precision="FP16">
					<dim>1</dim>
					<dim>32</dim>
					<dim>1</dim>
					<dim>1</dim>
				</port>
			</output>
		</layer>
		<layer id="22" name="Conv_11" type="Add" version="opset1">
			<data auto_broadcast="numpy"/>
			<input>
				<port id="0" precision="FP16">
					<dim>1</dim>
					<dim>32</dim>
					<dim>120</dim>
					<dim>120</dim>
				</port>
				<port id="1" precision="FP16">
					<dim>1</dim>
					<dim>32</dim>
					<dim>1</dim>
					<dim>1</dim>
				</port>
			</input>
			<output>
				<port id="2" precision="FP16" names="onnx::Sigmoid_381">
					<dim>1</dim>
					<dim>32</dim>
					<dim>120</dim>
					<dim>120</dim>
				</port>
			</output>
		</layer>
		<layer id="23" name="Mul_13" type="Swish" version="opset4">
			<input>
				<port id="0" precision="FP16">
					<dim>1</dim>
					<dim>32</dim>
					<dim>120</dim>
					<dim>120</dim>
				</port>
			</input>
			<output>
				<port id="1" precision="FP16" names="input.12">
					<dim>1</dim>
					<dim>32</dim>
					<dim>120</dim>
					<dim>120</dim>
				</port>
			</output>
		</layer>
		<layer id="24" name="onnx::Conv_1238" type="Const" version="opset1">
			<data element_type="f16" shape="32, 1, 1, 3, 3" offset="361888" size="576"/>
			<output>
				<port id="0" precision="FP16" names="onnx::Conv_1238">
					<dim>32</dim>
					<dim>1</dim>
					<dim>1</dim>
					<dim>3</dim>
					<dim>3</dim>
				</port>
			</output>
		</layer>
		<layer id="25" name="Conv_14/WithoutBiases" type="GroupConvolution" version="opset1">
			<data strides="2, 2" pads_begin="1, 1" pads_end="1, 1" dilations="1, 1" auto_pad="explicit"/>
			<input>
				<port id="0" precision="FP16">
					<dim>1</dim>
					<dim>32</dim>
					<dim>120</dim>
					<dim>120</dim>
				</port>
				<port id="1" precision="FP16">
					<dim>32</dim>
					<dim>1</dim>
					<dim>1</dim>
					<dim>3</dim>
					<dim>3</dim>
				</port>
			</input>
			<output>
				<port id="2" precision="FP16">
					<dim>1</dim>
					<dim>32</dim>
					<dim>60</dim>
					<dim>60</dim>
				</port>
			</output>
		</layer>
		<layer id="26" name="Conv_14/Dims9633" type="Const" version="opset1">
			<data element_type="f16" shape="1, 32, 1, 1" offset="362464" size="64"/>
			<output>
				<port id="0" precision="FP16">
					<dim>1</dim>
					<dim>32</dim>
					<dim>1</dim>
					<dim>1</dim>
				</port>
			</output>
		</layer>
		<layer id="27" name="Conv_14" type="Add" version="opset1">
			<data auto_broadcast="numpy"/>
			<input>
				<port id="0" precision="FP16">
					<dim>1</dim>
					<dim>32</dim>
					<dim>60</dim>
					<dim>60</dim>
				</port>
				<port id="1" precision="FP16">
					<dim>1</dim>
					<dim>32</dim>
					<dim>1</dim>
					<dim>1</dim>
				</port>
			</input>
			<output>
				<port id="2" precision="FP16" names="input.20">
					<dim>1</dim>
					<dim>32</dim>
					<dim>60</dim>
					<dim>60</dim>
				</port>
			</output>
		</layer>
		<layer id="28" name="onnx::Conv_1241" type="Const" version="opset1">
			<data element_type="f16" shape="56, 32, 1, 1" offset="362528" size="3584"/>
			<output>
				<port id="0" precision="FP16" names="onnx::Conv_1241">
					<dim>56</dim>
					<dim>32</dim>
					<dim>1</dim>
					<dim>1</dim>
				</port>
			</output>
		</layer>
		<layer id="29" name="Conv_15/WithoutBiases" type="Convolution" version="opset1">
			<data strides="1, 1" dilations="1, 1" pads_begin="0, 0" pads_end="0, 0" auto_pad="explicit"/>
			<input>
				<port id="0" precision="FP16">
					<dim>1</dim>
					<dim>32</dim>
					<dim>60</dim>
					<dim>60</dim>
				</port>
				<port id="1" precision="FP16">
					<dim>56</dim>
					<dim>32</dim>
					<dim>1</dim>
					<dim>1</dim>
				</port>
			</input>
			<output>
				<port id="2" precision="FP16">
					<dim>1</dim>
					<dim>56</dim>
					<dim>60</dim>
					<dim>60</dim>
				</port>
			</output>
		</layer>
		<layer id="30" name="Conv_15/Dims9651" type="Const" version="opset1">
			<data element_type="f16" shape="1, 56, 1, 1" offset="366112" size="112"/>
			<output>
				<port id="0" precision="FP16">
					<dim>1</dim>
					<dim>56</dim>
					<dim>1</dim>
					<dim>1</dim>
				</port>
			</output>
		</layer>
		<layer id="31" name="Conv_15" type="Add" version="opset1">
			<data auto_broadcast="numpy"/>
			<input>
				<port id="0" precision="FP16">
					<dim>1</dim>
					<dim>56</dim>
					<dim>60</dim>
					<dim>60</dim>
				</port>
				<port id="1" precision="FP16">
					<dim>1</dim>
					<dim>56</dim>
					<dim>1</dim>
					<dim>1</dim>
				</port>
			</input>
			<output>
				<port id="2" precision="FP16" names="onnx::Sigmoid_1240">
					<dim>1</dim>
					<dim>56</dim>
					<dim>60</dim>
					<dim>60</dim>
				</port>
			</output>
		</layer>
		<layer id="32" name="Mul_17" type="Swish" version="opset4">
			<input>
				<port id="0" precision="FP16">
					<dim>1</dim>
					<dim>56</dim>
					<dim>60</dim>
					<dim>60</dim>
				</port>
			</input>
			<output>
				<port id="1" precision="FP16" names="onnx::Concat_389">
					<dim>1</dim>
					<dim>56</dim>
					<dim>60</dim>
					<dim>60</dim>
				</port>
			</output>
		</layer>
		<layer id="33" name="onnx::Conv_1244" type="Const" version="opset1">
			<data element_type="f16" shape="56, 32, 1, 1" offset="366224" size="3584"/>
			<output>
				<port id="0" precision="FP16" names="onnx::Conv_1244">
					<dim>56</dim>
					<dim>32</dim>
					<dim>1</dim>
					<dim>1</dim>
				</port>
			</output>
		</layer>
		<layer id="34" name="Conv_18/WithoutBiases" type="Convolution" version="opset1">
			<data strides="1, 1" dilations="1, 1" pads_begin="0, 0" pads_end="0, 0" auto_pad="explicit"/>
			<input>
				<port id="0" precision="FP16">
					<dim>1</dim>
					<dim>32</dim>
					<dim>120</dim>
					<dim>120</dim>
				</port>
				<port id="1" precision="FP16">
					<dim>56</dim>
					<dim>32</dim>
					<dim>1</dim>
					<dim>1</dim>
				</port>
			</input>
			<output>
				<port id="2" precision="FP16">
					<dim>1</dim>
					<dim>56</dim>
					<dim>120</dim>
					<dim>120</dim>
				</port>
			</output>
		</layer>
		<layer id="35" name="Conv_18/Dims9627" type="Const" version="opset1">
			<data element_type="f16" shape="1, 56, 1, 1" offset="369808" size="112"/>
			<output>
				<port id="0" precision="FP16">
					<dim>1</dim>
					<dim>56</dim>
					<dim>1</dim>
					<dim>1</dim>
				</port>
			</output>
		</layer>
		<layer id="36" name="Conv_18" type="Add" version="opset1">
			<data auto_broadcast="numpy"/>
			<input>
				<port id="0" precision="FP16">
					<dim>1</dim>
					<dim>56</dim>
					<dim>120</dim>
					<dim>120</dim>
				</port>
				<port id="1" precision="FP16">
					<dim>1</dim>
					<dim>56</dim>
					<dim>1</dim>
					<dim>1</dim>
				</port>
			</input>
			<output>
				<port id="2" precision="FP16" names="onnx::Sigmoid_1243">
					<dim>1</dim>
					<dim>56</dim>
					<dim>120</dim>
					<dim>120</dim>
				</port>
			</output>
		</layer>
		<layer id="37" name="Mul_20" type="Swish" version="opset4">
			<input>
				<port id="0" precision="FP16">
					<dim>1</dim>
					<dim>56</dim>
					<dim>120</dim>
					<dim>120</dim>
				</port>
			</input>
			<output>
				<port id="1" precision="FP16" names="input.32">
					<dim>1</dim>
					<dim>56</dim>
					<dim>120</dim>
					<dim>120</dim>
				</port>
			</output>
		</layer>
		<layer id="38" name="onnx::Conv_1247" type="Const" version="opset1">
			<data element_type="f16" shape="56, 1, 1, 3, 3" offset="369920" size="1008"/>
			<output>
				<port id="0" precision="FP16" names="onnx::Conv_1247">
					<dim>56</dim>
					<dim>1</dim>
					<dim>1</dim>
					<dim>3</dim>
					<dim>3</dim>
				</port>
			</output>
		</layer>
		<layer id="39" name="Conv_21/WithoutBiases" type="GroupConvolution" version="opset1">
			<data strides="2, 2" pads_begin="1, 1" pads_end="1, 1" dilations="1, 1" auto_pad="explicit"/>
			<input>
				<port id="0" precision="FP16">
					<dim>1</dim>
					<dim>56</dim>
					<dim>120</dim>
					<dim>120</dim>
				</port>
				<port id="1" precision="FP16">
					<dim>56</dim>
					<dim>1</dim>
					<dim>1</dim>
					<dim>3</dim>
					<dim>3</dim>
				</port>
			</input>
			<output>
				<port id="2" precision="FP16">
					<dim>1</dim>
					<dim>56</dim>
					<dim>60</dim>
					<dim>60</dim>
				</port>
			</output>
		</layer>
		<layer id="40" name="Conv_21/Dims9483" type="Const" version="opset1">
			<data element_type="f16" shape="1, 56, 1, 1" offset="370928" size="112"/>
			<output>
				<port id="0" precision="FP16">
					<dim>1</dim>
					<dim>56</dim>
					<dim>1</dim>
					<dim>1</dim>
				</port>
			</output>
		</layer>
		<layer id="41" name="Conv_21" type="Add" version="opset1">
			<data auto_broadcast="numpy"/>
			<input>
				<port id="0" precision="FP16">
					<dim>1</dim>
					<dim>56</dim>
					<dim>60</dim>
					<dim>60</dim>
				</port>
				<port id="1" precision="FP16">
					<dim>1</dim>
					<dim>56</dim>
					<dim>1</dim>
					<dim>1</dim>
				</port>
			</input>
			<output>
				<port id="2" precision="FP16" names="input.40">
					<dim>1</dim>
					<dim>56</dim>
					<dim>60</dim>
					<dim>60</dim>
				</port>
			</output>
		</layer>
		<layer id="42" name="onnx::Conv_1250" type="Const" version="opset1">
			<data element_type="f16" shape="56, 56, 1, 1" offset="371040" size="6272"/>
			<output>
				<port id="0" precision="FP16" names="onnx::Conv_1250">
					<dim>56</dim>
					<dim>56</dim>
					<dim>1</dim>
					<dim>1</dim>
				</port>
			</output>
		</layer>
		<layer id="43" name="Conv_22/WithoutBiases" type="Convolution" version="opset1">
			<data strides="1, 1" dilations="1, 1" pads_begin="0, 0" pads_end="0, 0" auto_pad="explicit"/>
			<input>
				<port id="0" precision="FP16">
					<dim>1</dim>
					<dim>56</dim>
					<dim>60</dim>
					<dim>60</dim>
				</port>
				<port id="1" precision="FP16">
					<dim>56</dim>
					<dim>56</dim>
					<dim>1</dim>
					<dim>1</dim>
				</port>
			</input>
			<output>
				<port id="2" precision="FP16">
					<dim>1</dim>
					<dim>56</dim>
					<dim>60</dim>
					<dim>60</dim>
				</port>
			</output>
		</layer>
		<layer id="44" name="Conv_22/Dims9423" type="Const" version="opset1">
			<data element_type="f16" shape="1, 56, 1, 1" offset="377312" size="112"/>
			<output>
				<port id="0" precision="FP16">
					<dim>1</dim>
					<dim>56</dim>
					<dim>1</dim>
					<dim>1</dim>
				</port>
			</output>
		</layer>
		<layer id="45" name="Conv_22" type="Add" version="opset1">
			<data auto_broadcast="numpy"/>
			<input>
				<port id="0" precision="FP16">
					<dim>1</dim>
					<dim>56</dim>
					<dim>60</dim>
					<dim>60</dim>
				</port>
				<port id="1" precision="FP16">
					<dim>1</dim>
					<dim>56</dim>
					<dim>1</dim>
					<dim>1</dim>
				</port>
			</input>
			<output>
				<port id="2" precision="FP16" names="onnx::Sigmoid_1249">
					<dim>1</dim>
					<dim>56</dim>
					<dim>60</dim>
					<dim>60</dim>
				</port>
			</output>
		</layer>
		<layer id="46" name="Mul_24" type="Swish" version="opset4">
			<input>
				<port id="0" precision="FP16">
					<dim>1</dim>
					<dim>56</dim>
					<dim>60</dim>
					<dim>60</dim>
				</port>
			</input>
			<output>
				<port id="1" precision="FP16" names="onnx::Concat_399">
					<dim>1</dim>
					<dim>56</dim>
					<dim>60</dim>
					<dim>60</dim>
				</port>
			</output>
		</layer>
		<layer id="47" name="Concat_25" type="Concat" version="opset1">
			<data axis="1"/>
			<input>
				<port id="0" precision="FP16">
					<dim>1</dim>
					<dim>56</dim>
					<dim>60</dim>
					<dim>60</dim>
				</port>
				<port id="1" precision="FP16">
					<dim>1</dim>
					<dim>56</dim>
					<dim>60</dim>
					<dim>60</dim>
				</port>
			</input>
			<output>
				<port id="2" precision="FP16" names="out">
					<dim>1</dim>
					<dim>112</dim>
					<dim>60</dim>
					<dim>60</dim>
				</port>
			</output>
		</layer>
		<layer id="48" name="Constant_26" type="Const" version="opset1">
			<data element_type="i64" shape="5" offset="377424" size="40"/>
			<output>
				<port id="0" precision="I64" names="onnx::Reshape_401">
					<dim>5</dim>
				</port>
			</output>
		</layer>
		<layer id="49" name="Reshape_27" type="Reshape" version="opset1">
			<data special_zero="true"/>
			<input>
				<port id="0" precision="FP16">
					<dim>1</dim>
					<dim>112</dim>
					<dim>60</dim>
					<dim>60</dim>
				</port>
				<port id="1" precision="I64">
					<dim>5</dim>
				</port>
			</input>
			<output>
				<port id="2" precision="FP16" names="onnx::Transpose_402">
					<dim>1</dim>
					<dim>2</dim>
					<dim>56</dim>
					<dim>60</dim>
					<dim>60</dim>
				</port>
			</output>
		</layer>
		<layer id="50" name="951" type="Const" version="opset1">
			<data element_type="i64" shape="5" offset="377464" size="40"/>
			<output>
				<port id="0" precision="I64">
					<dim>5</dim>
				</port>
			</output>
		</layer>
		<layer id="51" name="Transpose_28" type="Transpose" version="opset1">
			<input>
				<port id="0" precision="FP16">
					<dim>1</dim>
					<dim>2</dim>
					<dim>56</dim>
					<dim>60</dim>
					<dim>60</dim>
				</port>
				<port id="1" precision="I64">
					<dim>5</dim>
				</port>
			</input>
			<output>
				<port id="2" precision="FP16" names="onnx::Reshape_403">
					<dim>1</dim>
					<dim>56</dim>
					<dim>2</dim>
					<dim>60</dim>
					<dim>60</dim>
				</port>
			</output>
		</layer>
		<layer id="52" name="Constant_29" type="Const" version="opset1">
			<data element_type="i64" shape="4" offset="377504" size="32"/>
			<output>
				<port id="0" precision="I64" names="onnx::Reshape_404">
					<dim>4</dim>
				</port>
			</output>
		</layer>
		<layer id="53" name="Reshape_30" type="Reshape" version="opset1">
			<data special_zero="true"/>
			<input>
				<port id="0" precision="FP16">
					<dim>1</dim>
					<dim>56</dim>
					<dim>2</dim>
					<dim>60</dim>
					<dim>60</dim>
				</port>
				<port id="1" precision="I64">
					<dim>4</dim>
				</port>
			</input>
			<output>
				<port id="2" precision="FP16" names="onnx::Shape_405">
					<dim>1</dim>
					<dim>112</dim>
					<dim>60</dim>
					<dim>60</dim>
				</port>
			</output>
		</layer>
		<layer id="54" name="1378630926" type="Const" version="opset1">
			<data element_type="i64" shape="" offset="377536" size="8"/>
			<output>
				<port id="0" precision="I64"/>
			</output>
		</layer>
		<layer id="55" name="1378830671" type="Const" version="opset1">
			<data element_type="i64" shape="2" offset="377544" size="16"/>
			<output>
				<port id="0" precision="I64">
					<dim>2</dim>
				</port>
			</output>
		</layer>
		<layer id="56" name="Slice_41/Split" type="VariadicSplit" version="opset1">
			<input>
				<port id="0" precision="FP16">
					<dim>1</dim>
					<dim>112</dim>
					<dim>60</dim>
					<dim>60</dim>
				</port>
				<port id="1" precision="I64"/>
				<port id="2" precision="I64">
					<dim>2</dim>
				</port>
			</input>
			<output>
				<port id="3" precision="FP16" names="onnx::Concat_416">
					<dim>1</dim>
					<dim>56</dim>
					<dim>60</dim>
					<dim>60</dim>
				</port>
				<port id="4" precision="FP16" names="onnx::Conv_419">
					<dim>1</dim>
					<dim>56</dim>
					<dim>60</dim>
					<dim>60</dim>
				</port>
			</output>
		</layer>
		<layer id="57" name="onnx::Conv_1253" type="Const" version="opset1">
			<data element_type="f16" shape="56, 56, 1, 1" offset="377560" size="6272"/>
			<output>
				<port id="0" precision="FP16" names="onnx::Conv_1253">
					<dim>56</dim>
					<dim>56</dim>
					<dim>1</dim>
					<dim>1</dim>
				</port>
			</output>
		</layer>
		<layer id="58" name="Conv_45/WithoutBiases" type="Convolution" version="opset1">
			<data strides="1, 1" dilations="1, 1" pads_begin="0, 0" pads_end="0, 0" auto_pad="explicit"/>
			<input>
				<port id="0" precision="FP16">
					<dim>1</dim>
					<dim>56</dim>
					<dim>60</dim>
					<dim>60</dim>
				</port>
				<port id="1" precision="FP16">
					<dim>56</dim>
					<dim>56</dim>
					<dim>1</dim>
					<dim>1</dim>
				</port>
			</input>
			<output>
				<port id="2" precision="FP16">
					<dim>1</dim>
					<dim>56</dim>
					<dim>60</dim>
					<dim>60</dim>
				</port>
			</output>
		</layer>
		<layer id="59" name="Conv_45/Dims9297" type="Const" version="opset1">
			<data element_type="f16" shape="1, 56, 1, 1" offset="383832" size="112"/>
			<output>
				<port id="0" precision="FP16">
					<dim>1</dim>
					<dim>56</dim>
					<dim>1</dim>
					<dim>1</dim>
				</port>
			</output>
		</layer>
		<layer id="60" name="Conv_45" type="Add" version="opset1">
			<data auto_broadcast="numpy"/>
			<input>
				<port id="0" precision="FP16">
					<dim>1</dim>
					<dim>56</dim>
					<dim>60</dim>
					<dim>60</dim>
				</port>
				<port id="1" precision="FP16">
					<dim>1</dim>
					<dim>56</dim>
					<dim>1</dim>
					<dim>1</dim>
				</port>
			</input>
			<output>
				<port id="2" precision="FP16" names="onnx::Sigmoid_1252">
					<dim>1</dim>
					<dim>56</dim>
					<dim>60</dim>
					<dim>60</dim>
				</port>
			</output>
		</layer>
		<layer id="61" name="Mul_47" type="Swish" version="opset4">
			<input>
				<port id="0" precision="FP16">
					<dim>1</dim>
					<dim>56</dim>
					<dim>60</dim>
					<dim>60</dim>
				</port>
			</input>
			<output>
				<port id="1" precision="FP16" names="input.52">
					<dim>1</dim>
					<dim>56</dim>
					<dim>60</dim>
					<dim>60</dim>
				</port>
			</output>
		</layer>
		<layer id="62" name="onnx::Conv_1256" type="Const" version="opset1">
			<data element_type="f16" shape="56, 1, 1, 3, 3" offset="383944" size="1008"/>
			<output>
				<port id="0" precision="FP16" names="onnx::Conv_1256">
					<dim>56</dim>
					<dim>1</dim>
					<dim>1</dim>
					<dim>3</dim>
					<dim>3</dim>
				</port>
			</output>
		</layer>
		<layer id="63" name="Conv_48/WithoutBiases" type="GroupConvolution" version="opset1">
			<data strides="1, 1" pads_begin="1, 1" pads_end="1, 1" dilations="1, 1" auto_pad="explicit"/>
			<input>
				<port id="0" precision="FP16">
					<dim>1</dim>
					<dim>56</dim>
					<dim>60</dim>
					<dim>60</dim>
				</port>
				<port id="1" precision="FP16">
					<dim>56</dim>
					<dim>1</dim>
					<dim>1</dim>
					<dim>3</dim>
					<dim>3</dim>
				</port>
			</input>
			<output>
				<port id="2" precision="FP16">
					<dim>1</dim>
					<dim>56</dim>
					<dim>60</dim>
					<dim>60</dim>
				</port>
			</output>
		</layer>
		<layer id="64" name="Conv_48/Dims9657" type="Const" version="opset1">
			<data element_type="f16" shape="1, 56, 1, 1" offset="384952" size="112"/>
			<output>
				<port id="0" precision="FP16">
					<dim>1</dim>
					<dim>56</dim>
					<dim>1</dim>
					<dim>1</dim>
				</port>
			</output>
		</layer>
		<layer id="65" name="Conv_48" type="Add" version="opset1">
			<data auto_broadcast="numpy"/>
			<input>
				<port id="0" precision="FP16">
					<dim>1</dim>
					<dim>56</dim>
					<dim>60</dim>
					<dim>60</dim>
				</port>
				<port id="1" precision="FP16">
					<dim>1</dim>
					<dim>56</dim>
					<dim>1</dim>
					<dim>1</dim>
				</port>
			</input>
			<output>
				<port id="2" precision="FP16" names="input.60">
					<dim>1</dim>
					<dim>56</dim>
					<dim>60</dim>
					<dim>60</dim>
				</port>
			</output>
		</layer>
		<layer id="66" name="onnx::Conv_1259" type="Const" version="opset1">
			<data element_type="f16" shape="56, 56, 1, 1" offset="385064" size="6272"/>
			<output>
				<port id="0" precision="FP16" names="onnx::Conv_1259">
					<dim>56</dim>
					<dim>56</dim>
					<dim>1</dim>
					<dim>1</dim>
				</port>
			</output>
		</layer>
		<layer id="67" name="Conv_49/WithoutBiases" type="Convolution" version="opset1">
			<data strides="1, 1" dilations="1, 1" pads_begin="0, 0" pads_end="0, 0" auto_pad="explicit"/>
			<input>
				<port id="0" precision="FP16">
					<dim>1</dim>
					<dim>56</dim>
					<dim>60</dim>
					<dim>60</dim>
				</port>
				<port id="1" precision="FP16">
					<dim>56</dim>
					<dim>56</dim>
					<dim>1</dim>
					<dim>1</dim>
				</port>
			</input>
			<output>
				<port id="2" precision="FP16">
					<dim>1</dim>
					<dim>56</dim>
					<dim>60</dim>
					<dim>60</dim>
				</port>
			</output>
		</layer>
		<layer id="68" name="Conv_49/Dims9435" type="Const" version="opset1">
			<data element_type="f16" shape="1, 56, 1, 1" offset="391336" size="112"/>
			<output>
				<port id="0" precision="FP16">
					<dim>1</dim>
					<dim>56</dim>
					<dim>1</dim>
					<dim>1</dim>
				</port>
			</output>
		</layer>
		<layer id="69" name="Conv_49" type="Add" version="opset1">
			<data auto_broadcast="numpy"/>
			<input>
				<port id="0" precision="FP16">
					<dim>1</dim>
					<dim>56</dim>
					<dim>60</dim>
					<dim>60</dim>
				</port>
				<port id="1" precision="FP16">
					<dim>1</dim>
					<dim>56</dim>
					<dim>1</dim>
					<dim>1</dim>
				</port>
			</input>
			<output>
				<port id="2" precision="FP16" names="onnx::Sigmoid_1258">
					<dim>1</dim>
					<dim>56</dim>
					<dim>60</dim>
					<dim>60</dim>
				</port>
			</output>
		</layer>
		<layer id="70" name="Mul_51" type="Swish" version="opset4">
			<input>
				<port id="0" precision="FP16">
					<dim>1</dim>
					<dim>56</dim>
					<dim>60</dim>
					<dim>60</dim>
				</port>
			</input>
			<output>
				<port id="1" precision="FP16" names="onnx::Concat_429">
					<dim>1</dim>
					<dim>56</dim>
					<dim>60</dim>
					<dim>60</dim>
				</port>
			</output>
		</layer>
		<layer id="71" name="Concat_52" type="Concat" version="opset1">
			<data axis="1"/>
			<input>
				<port id="0" precision="FP16">
					<dim>1</dim>
					<dim>56</dim>
					<dim>60</dim>
					<dim>60</dim>
				</port>
				<port id="1" precision="FP16">
					<dim>1</dim>
					<dim>56</dim>
					<dim>60</dim>
					<dim>60</dim>
				</port>
			</input>
			<output>
				<port id="2" precision="FP16" names="out.3">
					<dim>1</dim>
					<dim>112</dim>
					<dim>60</dim>
					<dim>60</dim>
				</port>
			</output>
		</layer>
		<layer id="72" name="Constant_53" type="Const" version="opset1">
			<data element_type="i64" shape="5" offset="377424" size="40"/>
			<output>
				<port id="0" precision="I64" names="onnx::Reshape_431">
					<dim>5</dim>
				</port>
			</output>
		</layer>
		<layer id="73" name="Reshape_54" type="Reshape" version="opset1">
			<data special_zero="true"/>
			<input>
				<port id="0" precision="FP16">
					<dim>1</dim>
					<dim>112</dim>
					<dim>60</dim>
					<dim>60</dim>
				</port>
				<port id="1" precision="I64">
					<dim>5</dim>
				</port>
			</input>
			<output>
				<port id="2" precision="FP16" names="onnx::Transpose_432">
					<dim>1</dim>
					<dim>2</dim>
					<dim>56</dim>
					<dim>60</dim>
					<dim>60</dim>
				</port>
			</output>
		</layer>
		<layer id="74" name="940" type="Const" version="opset1">
			<data element_type="i64" shape="5" offset="377464" size="40"/>
			<output>
				<port id="0" precision="I64">
					<dim>5</dim>
				</port>
			</output>
		</layer>
		<layer id="75" name="Transpose_55" type="Transpose" version="opset1">
			<input>
				<port id="0" precision="FP16">
					<dim>1</dim>
					<dim>2</dim>
					<dim>56</dim>
					<dim>60</dim>
					<dim>60</dim>
				</port>
				<port id="1" precision="I64">
					<dim>5</dim>
				</port>
			</input>
			<output>
				<port id="2" precision="FP16" names="onnx::Reshape_433">
					<dim>1</dim>
					<dim>56</dim>
					<dim>2</dim>
					<dim>60</dim>
					<dim>60</dim>
				</port>
			</output>
		</layer>
		<layer id="76" name="Constant_56" type="Const" version="opset1">
			<data element_type="i64" shape="4" offset="377504" size="32"/>
			<output>
				<port id="0" precision="I64" names="onnx::Reshape_434">
					<dim>4</dim>
				</port>
			</output>
		</layer>
		<layer id="77" name="Reshape_57" type="Reshape" version="opset1">
			<data special_zero="true"/>
			<input>
				<port id="0" precision="FP16">
					<dim>1</dim>
					<dim>56</dim>
					<dim>2</dim>
					<dim>60</dim>
					<dim>60</dim>
				</port>
				<port id="1" precision="I64">
					<dim>4</dim>
				</port>
			</input>
			<output>
				<port id="2" precision="FP16" names="onnx::Shape_435">
					<dim>1</dim>
					<dim>112</dim>
					<dim>60</dim>
					<dim>60</dim>
				</port>
			</output>
		</layer>
		<layer id="78" name="1379131418" type="Const" version="opset1">
			<data element_type="i64" shape="" offset="377536" size="8"/>
			<output>
				<port id="0" precision="I64"/>
			</output>
		</layer>
		<layer id="79" name="1379331535" type="Const" version="opset1">
			<data element_type="i64" shape="2" offset="377544" size="16"/>
			<output>
				<port id="0" precision="I64">
					<dim>2</dim>
				</port>
			</output>
		</layer>
		<layer id="80" name="Slice_68/Split" type="VariadicSplit" version="opset1">
			<input>
				<port id="0" precision="FP16">
					<dim>1</dim>
					<dim>112</dim>
					<dim>60</dim>
					<dim>60</dim>
				</port>
				<port id="1" precision="I64"/>
				<port id="2" precision="I64">
					<dim>2</dim>
				</port>
			</input>
			<output>
				<port id="3" precision="FP16" names="onnx::Concat_446">
					<dim>1</dim>
					<dim>56</dim>
					<dim>60</dim>
					<dim>60</dim>
				</port>
				<port id="4" precision="FP16" names="onnx::Conv_449">
					<dim>1</dim>
					<dim>56</dim>
					<dim>60</dim>
					<dim>60</dim>
				</port>
			</output>
		</layer>
		<layer id="81" name="onnx::Conv_1262" type="Const" version="opset1">
			<data element_type="f16" shape="56, 56, 1, 1" offset="391448" size="6272"/>
			<output>
				<port id="0" precision="FP16" names="onnx::Conv_1262">
					<dim>56</dim>
					<dim>56</dim>
					<dim>1</dim>
					<dim>1</dim>
				</port>
			</output>
		</layer>
		<layer id="82" name="Conv_72/WithoutBiases" type="Convolution" version="opset1">
			<data strides="1, 1" dilations="1, 1" pads_begin="0, 0" pads_end="0, 0" auto_pad="explicit"/>
			<input>
				<port id="0" precision="FP16">
					<dim>1</dim>
					<dim>56</dim>
					<dim>60</dim>
					<dim>60</dim>
				</port>
				<port id="1" precision="FP16">
					<dim>56</dim>
					<dim>56</dim>
					<dim>1</dim>
					<dim>1</dim>
				</port>
			</input>
			<output>
				<port id="2" precision="FP16">
					<dim>1</dim>
					<dim>56</dim>
					<dim>60</dim>
					<dim>60</dim>
				</port>
			</output>
		</layer>
		<layer id="83" name="Conv_72/Dims9459" type="Const" version="opset1">
			<data element_type="f16" shape="1, 56, 1, 1" offset="397720" size="112"/>
			<output>
				<port id="0" precision="FP16">
					<dim>1</dim>
					<dim>56</dim>
					<dim>1</dim>
					<dim>1</dim>
				</port>
			</output>
		</layer>
		<layer id="84" name="Conv_72" type="Add" version="opset1">
			<data auto_broadcast="numpy"/>
			<input>
				<port id="0" precision="FP16">
					<dim>1</dim>
					<dim>56</dim>
					<dim>60</dim>
					<dim>60</dim>
				</port>
				<port id="1" precision="FP16">
					<dim>1</dim>
					<dim>56</dim>
					<dim>1</dim>
					<dim>1</dim>
				</port>
			</input>
			<output>
				<port id="2" precision="FP16" names="onnx::Sigmoid_1261">
					<dim>1</dim>
					<dim>56</dim>
					<dim>60</dim>
					<dim>60</dim>
				</port>
			</output>
		</layer>
		<layer id="85" name="Mul_74" type="Swish" version="opset4">
			<input>
				<port id="0" precision="FP16">
					<dim>1</dim>
					<dim>56</dim>
					<dim>60</dim>
					<dim>60</dim>
				</port>
			</input>
			<output>
				<port id="1" precision="FP16" names="input.72">
					<dim>1</dim>
					<dim>56</dim>
					<dim>60</dim>
					<dim>60</dim>
				</port>
			</output>
		</layer>
		<layer id="86" name="onnx::Conv_1265" type="Const" version="opset1">
			<data element_type="f16" shape="56, 1, 1, 3, 3" offset="397832" size="1008"/>
			<output>
				<port id="0" precision="FP16" names="onnx::Conv_1265">
					<dim>56</dim>
					<dim>1</dim>
					<dim>1</dim>
					<dim>3</dim>
					<dim>3</dim>
				</port>
			</output>
		</layer>
		<layer id="87" name="Conv_75/WithoutBiases" type="GroupConvolution" version="opset1">
			<data strides="1, 1" pads_begin="1, 1" pads_end="1, 1" dilations="1, 1" auto_pad="explicit"/>
			<input>
				<port id="0" precision="FP16">
					<dim>1</dim>
					<dim>56</dim>
					<dim>60</dim>
					<dim>60</dim>
				</port>
				<port id="1" precision="FP16">
					<dim>56</dim>
					<dim>1</dim>
					<dim>1</dim>
					<dim>3</dim>
					<dim>3</dim>
				</port>
			</input>
			<output>
				<port id="2" precision="FP16">
					<dim>1</dim>
					<dim>56</dim>
					<dim>60</dim>
					<dim>60</dim>
				</port>
			</output>
		</layer>
		<layer id="88" name="Conv_75/Dims9591" type="Const" version="opset1">
			<data element_type="f16" shape="1, 56, 1, 1" offset="398840" size="112"/>
			<output>
				<port id="0" precision="FP16">
					<dim>1</dim>
					<dim>56</dim>
					<dim>1</dim>
					<dim>1</dim>
				</port>
			</output>
		</layer>
		<layer id="89" name="Conv_75" type="Add" version="opset1">
			<data auto_broadcast="numpy"/>
			<input>
				<port id="0" precision="FP16">
					<dim>1</dim>
					<dim>56</dim>
					<dim>60</dim>
					<dim>60</dim>
				</port>
				<port id="1" precision="FP16">
					<dim>1</dim>
					<dim>56</dim>
					<dim>1</dim>
					<dim>1</dim>
				</port>
			</input>
			<output>
				<port id="2" precision="FP16" names="input.80">
					<dim>1</dim>
					<dim>56</dim>
					<dim>60</dim>
					<dim>60</dim>
				</port>
			</output>
		</layer>
		<layer id="90" name="onnx::Conv_1268" type="Const" version="opset1">
			<data element_type="f16" shape="56, 56, 1, 1" offset="398952" size="6272"/>
			<output>
				<port id="0" precision="FP16" names="onnx::Conv_1268">
					<dim>56</dim>
					<dim>56</dim>
					<dim>1</dim>
					<dim>1</dim>
				</port>
			</output>
		</layer>
		<layer id="91" name="Conv_76/WithoutBiases" type="Convolution" version="opset1">
			<data strides="1, 1" dilations="1, 1" pads_begin="0, 0" pads_end="0, 0" auto_pad="explicit"/>
			<input>
				<port id="0" precision="FP16">
					<dim>1</dim>
					<dim>56</dim>
					<dim>60</dim>
					<dim>60</dim>
				</port>
				<port id="1" precision="FP16">
					<dim>56</dim>
					<dim>56</dim>
					<dim>1</dim>
					<dim>1</dim>
				</port>
			</input>
			<output>
				<port id="2" precision="FP16">
					<dim>1</dim>
					<dim>56</dim>
					<dim>60</dim>
					<dim>60</dim>
				</port>
			</output>
		</layer>
		<layer id="92" name="Conv_76/Dims9345" type="Const" version="opset1">
			<data element_type="f16" shape="1, 56, 1, 1" offset="405224" size="112"/>
			<output>
				<port id="0" precision="FP16">
					<dim>1</dim>
					<dim>56</dim>
					<dim>1</dim>
					<dim>1</dim>
				</port>
			</output>
		</layer>
		<layer id="93" name="Conv_76" type="Add" version="opset1">
			<data auto_broadcast="numpy"/>
			<input>
				<port id="0" precision="FP16">
					<dim>1</dim>
					<dim>56</dim>
					<dim>60</dim>
					<dim>60</dim>
				</port>
				<port id="1" precision="FP16">
					<dim>1</dim>
					<dim>56</dim>
					<dim>1</dim>
					<dim>1</dim>
				</port>
			</input>
			<output>
				<port id="2" precision="FP16" names="onnx::Sigmoid_1267">
					<dim>1</dim>
					<dim>56</dim>
					<dim>60</dim>
					<dim>60</dim>
				</port>
			</output>
		</layer>
		<layer id="94" name="Mul_78" type="Swish" version="opset4">
			<input>
				<port id="0" precision="FP16">
					<dim>1</dim>
					<dim>56</dim>
					<dim>60</dim>
					<dim>60</dim>
				</port>
			</input>
			<output>
				<port id="1" precision="FP16" names="onnx::Concat_459">
					<dim>1</dim>
					<dim>56</dim>
					<dim>60</dim>
					<dim>60</dim>
				</port>
			</output>
		</layer>
		<layer id="95" name="Concat_79" type="Concat" version="opset1">
			<data axis="1"/>
			<input>
				<port id="0" precision="FP16">
					<dim>1</dim>
					<dim>56</dim>
					<dim>60</dim>
					<dim>60</dim>
				</port>
				<port id="1" precision="FP16">
					<dim>1</dim>
					<dim>56</dim>
					<dim>60</dim>
					<dim>60</dim>
				</port>
			</input>
			<output>
				<port id="2" precision="FP16" names="out.7">
					<dim>1</dim>
					<dim>112</dim>
					<dim>60</dim>
					<dim>60</dim>
				</port>
			</output>
		</layer>
		<layer id="96" name="Constant_80" type="Const" version="opset1">
			<data element_type="i64" shape="5" offset="377424" size="40"/>
			<output>
				<port id="0" precision="I64" names="onnx::Reshape_461">
					<dim>5</dim>
				</port>
			</output>
		</layer>
		<layer id="97" name="Reshape_81" type="Reshape" version="opset1">
			<data special_zero="true"/>
			<input>
				<port id="0" precision="FP16">
					<dim>1</dim>
					<dim>112</dim>
					<dim>60</dim>
					<dim>60</dim>
				</port>
				<port id="1" precision="I64">
					<dim>5</dim>
				</port>
			</input>
			<output>
				<port id="2" precision="FP16" names="onnx::Transpose_462">
					<dim>1</dim>
					<dim>2</dim>
					<dim>56</dim>
					<dim>60</dim>
					<dim>60</dim>
				</port>
			</output>
		</layer>
		<layer id="98" name="938" type="Const" version="opset1">
			<data element_type="i64" shape="5" offset="377464" size="40"/>
			<output>
				<port id="0" precision="I64">
					<dim>5</dim>
				</port>
			</output>
		</layer>
		<layer id="99" name="Transpose_82" type="Transpose" version="opset1">
			<input>
				<port id="0" precision="FP16">
					<dim>1</dim>
					<dim>2</dim>
					<dim>56</dim>
					<dim>60</dim>
					<dim>60</dim>
				</port>
				<port id="1" precision="I64">
					<dim>5</dim>
				</port>
			</input>
			<output>
				<port id="2" precision="FP16" names="onnx::Reshape_463">
					<dim>1</dim>
					<dim>56</dim>
					<dim>2</dim>
					<dim>60</dim>
					<dim>60</dim>
				</port>
			</output>
		</layer>
		<layer id="100" name="Constant_83" type="Const" version="opset1">
			<data element_type="i64" shape="4" offset="377504" size="32"/>
			<output>
				<port id="0" precision="I64" names="onnx::Reshape_464">
					<dim>4</dim>
				</port>
			</output>
		</layer>
		<layer id="101" name="Reshape_84" type="Reshape" version="opset1">
			<data special_zero="true"/>
			<input>
				<port id="0" precision="FP16">
					<dim>1</dim>
					<dim>56</dim>
					<dim>2</dim>
					<dim>60</dim>
					<dim>60</dim>
				</port>
				<port id="1" precision="I64">
					<dim>4</dim>
				</port>
			</input>
			<output>
				<port id="2" precision="FP16" names="onnx::Shape_465">
					<dim>1</dim>
					<dim>112</dim>
					<dim>60</dim>
					<dim>60</dim>
				</port>
			</output>
		</layer>
		<layer id="102" name="1379631442" type="Const" version="opset1">
			<data element_type="i64" shape="" offset="377536" size="8"/>
			<output>
				<port id="0" precision="I64"/>
			</output>
		</layer>
		<layer id="103" name="1379830827" type="Const" version="opset1">
			<data element_type="i64" shape="2" offset="377544" size="16"/>
			<output>
				<port id="0" precision="I64">
					<dim>2</dim>
				</port>
			</output>
		</layer>
		<layer id="104" name="Slice_95/Split" type="VariadicSplit" version="opset1">
			<input>
				<port id="0" precision="FP16">
					<dim>1</dim>
					<dim>112</dim>
					<dim>60</dim>
					<dim>60</dim>
				</port>
				<port id="1" precision="I64"/>
				<port id="2" precision="I64">
					<dim>2</dim>
				</port>
			</input>
			<output>
				<port id="3" precision="FP16" names="onnx::Concat_476">
					<dim>1</dim>
					<dim>56</dim>
					<dim>60</dim>
					<dim>60</dim>
				</port>
				<port id="4" precision="FP16" names="onnx::Conv_479">
					<dim>1</dim>
					<dim>56</dim>
					<dim>60</dim>
					<dim>60</dim>
				</port>
			</output>
		</layer>
		<layer id="105" name="onnx::Conv_1271" type="Const" version="opset1">
			<data element_type="f16" shape="56, 56, 1, 1" offset="405336" size="6272"/>
			<output>
				<port id="0" precision="FP16" names="onnx::Conv_1271">
					<dim>56</dim>
					<dim>56</dim>
					<dim>1</dim>
					<dim>1</dim>
				</port>
			</output>
		</layer>
		<layer id="106" name="Conv_99/WithoutBiases" type="Convolution" version="opset1">
			<data strides="1, 1" dilations="1, 1" pads_begin="0, 0" pads_end="0, 0" auto_pad="explicit"/>
			<input>
				<port id="0" precision="FP16">
					<dim>1</dim>
					<dim>56</dim>
					<dim>60</dim>
					<dim>60</dim>
				</port>
				<port id="1" precision="FP16">
					<dim>56</dim>
					<dim>56</dim>
					<dim>1</dim>
					<dim>1</dim>
				</port>
			</input>
			<output>
				<port id="2" precision="FP16">
					<dim>1</dim>
					<dim>56</dim>
					<dim>60</dim>
					<dim>60</dim>
				</port>
			</output>
		</layer>
		<layer id="107" name="Conv_99/Dims9525" type="Const" version="opset1">
			<data element_type="f16" shape="1, 56, 1, 1" offset="411608" size="112"/>
			<output>
				<port id="0" precision="FP16">
					<dim>1</dim>
					<dim>56</dim>
					<dim>1</dim>
					<dim>1</dim>
				</port>
			</output>
		</layer>
		<layer id="108" name="Conv_99" type="Add" version="opset1">
			<data auto_broadcast="numpy"/>
			<input>
				<port id="0" precision="FP16">
					<dim>1</dim>
					<dim>56</dim>
					<dim>60</dim>
					<dim>60</dim>
				</port>
				<port id="1" precision="FP16">
					<dim>1</dim>
					<dim>56</dim>
					<dim>1</dim>
					<dim>1</dim>
				</port>
			</input>
			<output>
				<port id="2" precision="FP16" names="onnx::Sigmoid_1270">
					<dim>1</dim>
					<dim>56</dim>
					<dim>60</dim>
					<dim>60</dim>
				</port>
			</output>
		</layer>
		<layer id="109" name="Mul_101" type="Swish" version="opset4">
			<input>
				<port id="0" precision="FP16">
					<dim>1</dim>
					<dim>56</dim>
					<dim>60</dim>
					<dim>60</dim>
				</port>
			</input>
			<output>
				<port id="1" precision="FP16" names="input.92">
					<dim>1</dim>
					<dim>56</dim>
					<dim>60</dim>
					<dim>60</dim>
				</port>
			</output>
		</layer>
		<layer id="110" name="onnx::Conv_1274" type="Const" version="opset1">
			<data element_type="f16" shape="56, 1, 1, 3, 3" offset="411720" size="1008"/>
			<output>
				<port id="0" precision="FP16" names="onnx::Conv_1274">
					<dim>56</dim>
					<dim>1</dim>
					<dim>1</dim>
					<dim>3</dim>
					<dim>3</dim>
				</port>
			</output>
		</layer>
		<layer id="111" name="Conv_102/WithoutBiases" type="GroupConvolution" version="opset1">
			<data strides="1, 1" pads_begin="1, 1" pads_end="1, 1" dilations="1, 1" auto_pad="explicit"/>
			<input>
				<port id="0" precision="FP16">
					<dim>1</dim>
					<dim>56</dim>
					<dim>60</dim>
					<dim>60</dim>
				</port>
				<port id="1" precision="FP16">
					<dim>56</dim>
					<dim>1</dim>
					<dim>1</dim>
					<dim>3</dim>
					<dim>3</dim>
				</port>
			</input>
			<output>
				<port id="2" precision="FP16">
					<dim>1</dim>
					<dim>56</dim>
					<dim>60</dim>
					<dim>60</dim>
				</port>
			</output>
		</layer>
		<layer id="112" name="Conv_102/Dims9237" type="Const" version="opset1">
			<data element_type="f16" shape="1, 56, 1, 1" offset="412728" size="112"/>
			<output>
				<port id="0" precision="FP16">
					<dim>1</dim>
					<dim>56</dim>
					<dim>1</dim>
					<dim>1</dim>
				</port>
			</output>
		</layer>
		<layer id="113" name="Conv_102" type="Add" version="opset1">
			<data auto_broadcast="numpy"/>
			<input>
				<port id="0" precision="FP16">
					<dim>1</dim>
					<dim>56</dim>
					<dim>60</dim>
					<dim>60</dim>
				</port>
				<port id="1" precision="FP16">
					<dim>1</dim>
					<dim>56</dim>
					<dim>1</dim>
					<dim>1</dim>
				</port>
			</input>
			<output>
				<port id="2" precision="FP16" names="input.100">
					<dim>1</dim>
					<dim>56</dim>
					<dim>60</dim>
					<dim>60</dim>
				</port>
			</output>
		</layer>
		<layer id="114" name="onnx::Conv_1277" type="Const" version="opset1">
			<data element_type="f16" shape="56, 56, 1, 1" offset="412840" size="6272"/>
			<output>
				<port id="0" precision="FP16" names="onnx::Conv_1277">
					<dim>56</dim>
					<dim>56</dim>
					<dim>1</dim>
					<dim>1</dim>
				</port>
			</output>
		</layer>
		<layer id="115" name="Conv_103/WithoutBiases" type="Convolution" version="opset1">
			<data strides="1, 1" dilations="1, 1" pads_begin="0, 0" pads_end="0, 0" auto_pad="explicit"/>
			<input>
				<port id="0" precision="FP16">
					<dim>1</dim>
					<dim>56</dim>
					<dim>60</dim>
					<dim>60</dim>
				</port>
				<port id="1" precision="FP16">
					<dim>56</dim>
					<dim>56</dim>
					<dim>1</dim>
					<dim>1</dim>
				</port>
			</input>
			<output>
				<port id="2" precision="FP16">
					<dim>1</dim>
					<dim>56</dim>
					<dim>60</dim>
					<dim>60</dim>
				</port>
			</output>
		</layer>
		<layer id="116" name="Conv_103/Dims9249" type="Const" version="opset1">
			<data element_type="f16" shape="1, 56, 1, 1" offset="419112" size="112"/>
			<output>
				<port id="0" precision="FP16">
					<dim>1</dim>
					<dim>56</dim>
					<dim>1</dim>
					<dim>1</dim>
				</port>
			</output>
		</layer>
		<layer id="117" name="Conv_103" type="Add" version="opset1">
			<data auto_broadcast="numpy"/>
			<input>
				<port id="0" precision="FP16">
					<dim>1</dim>
					<dim>56</dim>
					<dim>60</dim>
					<dim>60</dim>
				</port>
				<port id="1" precision="FP16">
					<dim>1</dim>
					<dim>56</dim>
					<dim>1</dim>
					<dim>1</dim>
				</port>
			</input>
			<output>
				<port id="2" precision="FP16" names="onnx::Sigmoid_1276">
					<dim>1</dim>
					<dim>56</dim>
					<dim>60</dim>
					<dim>60</dim>
				</port>
			</output>
		</layer>
		<layer id="118" name="Mul_105" type="Swish" version="opset4">
			<input>
				<port id="0" precision="FP16">
					<dim>1</dim>
					<dim>56</dim>
					<dim>60</dim>
					<dim>60</dim>
				</port>
			</input>
			<output>
				<port id="1" precision="FP16" names="onnx::Concat_489">
					<dim>1</dim>
					<dim>56</dim>
					<dim>60</dim>
					<dim>60</dim>
				</port>
			</output>
		</layer>
		<layer id="119" name="Concat_106" type="Concat" version="opset1">
			<data axis="1"/>
			<input>
				<port id="0" precision="FP16">
					<dim>1</dim>
					<dim>56</dim>
					<dim>60</dim>
					<dim>60</dim>
				</port>
				<port id="1" precision="FP16">
					<dim>1</dim>
					<dim>56</dim>
					<dim>60</dim>
					<dim>60</dim>
				</port>
			</input>
			<output>
				<port id="2" precision="FP16" names="out.11">
					<dim>1</dim>
					<dim>112</dim>
					<dim>60</dim>
					<dim>60</dim>
				</port>
			</output>
		</layer>
		<layer id="120" name="Constant_107" type="Const" version="opset1">
			<data element_type="i64" shape="5" offset="377424" size="40"/>
			<output>
				<port id="0" precision="I64" names="onnx::Reshape_491">
					<dim>5</dim>
				</port>
			</output>
		</layer>
		<layer id="121" name="Reshape_108" type="Reshape" version="opset1">
			<data special_zero="true"/>
			<input>
				<port id="0" precision="FP16">
					<dim>1</dim>
					<dim>112</dim>
					<dim>60</dim>
					<dim>60</dim>
				</port>
				<port id="1" precision="I64">
					<dim>5</dim>
				</port>
			</input>
			<output>
				<port id="2" precision="FP16" names="onnx::Transpose_492">
					<dim>1</dim>
					<dim>2</dim>
					<dim>56</dim>
					<dim>60</dim>
					<dim>60</dim>
				</port>
			</output>
		</layer>
		<layer id="122" name="943" type="Const" version="opset1">
			<data element_type="i64" shape="5" offset="377464" size="40"/>
			<output>
				<port id="0" precision="I64">
					<dim>5</dim>
				</port>
			</output>
		</layer>
		<layer id="123" name="Transpose_109" type="Transpose" version="opset1">
			<input>
				<port id="0" precision="FP16">
					<dim>1</dim>
					<dim>2</dim>
					<dim>56</dim>
					<dim>60</dim>
					<dim>60</dim>
				</port>
				<port id="1" precision="I64">
					<dim>5</dim>
				</port>
			</input>
			<output>
				<port id="2" precision="FP16" names="onnx::Reshape_493">
					<dim>1</dim>
					<dim>56</dim>
					<dim>2</dim>
					<dim>60</dim>
					<dim>60</dim>
				</port>
			</output>
		</layer>
		<layer id="124" name="Constant_110" type="Const" version="opset1">
			<data element_type="i64" shape="4" offset="377504" size="32"/>
			<output>
				<port id="0" precision="I64" names="onnx::Reshape_494">
					<dim>4</dim>
				</port>
			</output>
		</layer>
		<layer id="125" name="Reshape_111" type="Reshape" version="opset1">
			<data special_zero="true"/>
			<input>
				<port id="0" precision="FP16">
					<dim>1</dim>
					<dim>56</dim>
					<dim>2</dim>
					<dim>60</dim>
					<dim>60</dim>
				</port>
				<port id="1" precision="I64">
					<dim>4</dim>
				</port>
			</input>
			<output>
				<port id="2" precision="FP16" names="input.108">
					<dim>1</dim>
					<dim>112</dim>
					<dim>60</dim>
					<dim>60</dim>
				</port>
			</output>
		</layer>
		<layer id="126" name="onnx::Conv_1280" type="Const" version="opset1">
			<data element_type="f16" shape="112, 1, 1, 3, 3" offset="419224" size="2016"/>
			<output>
				<port id="0" precision="FP16" names="onnx::Conv_1280">
					<dim>112</dim>
					<dim>1</dim>
					<dim>1</dim>
					<dim>3</dim>
					<dim>3</dim>
				</port>
			</output>
		</layer>
		<layer id="127" name="Conv_112/WithoutBiases" type="GroupConvolution" version="opset1">
			<data strides="2, 2" pads_begin="1, 1" pads_end="1, 1" dilations="1, 1" auto_pad="explicit"/>
			<input>
				<port id="0" precision="FP16">
					<dim>1</dim>
					<dim>112</dim>
					<dim>60</dim>
					<dim>60</dim>
				</port>
				<port id="1" precision="FP16">
					<dim>112</dim>
					<dim>1</dim>
					<dim>1</dim>
					<dim>3</dim>
					<dim>3</dim>
				</port>
			</input>
			<output>
				<port id="2" precision="FP16">
					<dim>1</dim>
					<dim>112</dim>
					<dim>30</dim>
					<dim>30</dim>
				</port>
			</output>
		</layer>
		<layer id="128" name="Conv_112/Dims9639" type="Const" version="opset1">
			<data element_type="f16" shape="1, 112, 1, 1" offset="421240" size="224"/>
			<output>
				<port id="0" precision="FP16">
					<dim>1</dim>
					<dim>112</dim>
					<dim>1</dim>
					<dim>1</dim>
				</port>
			</output>
		</layer>
		<layer id="129" name="Conv_112" type="Add" version="opset1">
			<data auto_broadcast="numpy"/>
			<input>
				<port id="0" precision="FP16">
					<dim>1</dim>
					<dim>112</dim>
					<dim>30</dim>
					<dim>30</dim>
				</port>
				<port id="1" precision="FP16">
					<dim>1</dim>
					<dim>112</dim>
					<dim>1</dim>
					<dim>1</dim>
				</port>
			</input>
			<output>
				<port id="2" precision="FP16" names="input.116">
					<dim>1</dim>
					<dim>112</dim>
					<dim>30</dim>
					<dim>30</dim>
				</port>
			</output>
		</layer>
		<layer id="130" name="onnx::Conv_1283" type="Const" version="opset1">
			<data element_type="f16" shape="108, 112, 1, 1" offset="421464" size="24192"/>
			<output>
				<port id="0" precision="FP16" names="onnx::Conv_1283">
					<dim>108</dim>
					<dim>112</dim>
					<dim>1</dim>
					<dim>1</dim>
				</port>
			</output>
		</layer>
		<layer id="131" name="Conv_113/WithoutBiases" type="Convolution" version="opset1">
			<data strides="1, 1" dilations="1, 1" pads_begin="0, 0" pads_end="0, 0" auto_pad="explicit"/>
			<input>
				<port id="0" precision="FP16">
					<dim>1</dim>
					<dim>112</dim>
					<dim>30</dim>
					<dim>30</dim>
				</port>
				<port id="1" precision="FP16">
					<dim>108</dim>
					<dim>112</dim>
					<dim>1</dim>
					<dim>1</dim>
				</port>
			</input>
			<output>
				<port id="2" precision="FP16">
					<dim>1</dim>
					<dim>108</dim>
					<dim>30</dim>
					<dim>30</dim>
				</port>
			</output>
		</layer>
		<layer id="132" name="Conv_113/Dims9543" type="Const" version="opset1">
			<data element_type="f16" shape="1, 108, 1, 1" offset="445656" size="216"/>
			<output>
				<port id="0" precision="FP16">
					<dim>1</dim>
					<dim>108</dim>
					<dim>1</dim>
					<dim>1</dim>
				</port>
			</output>
		</layer>
		<layer id="133" name="Conv_113" type="Add" version="opset1">
			<data auto_broadcast="numpy"/>
			<input>
				<port id="0" precision="FP16">
					<dim>1</dim>
					<dim>108</dim>
					<dim>30</dim>
					<dim>30</dim>
				</port>
				<port id="1" precision="FP16">
					<dim>1</dim>
					<dim>108</dim>
					<dim>1</dim>
					<dim>1</dim>
				</port>
			</input>
			<output>
				<port id="2" precision="FP16" names="onnx::Sigmoid_1282">
					<dim>1</dim>
					<dim>108</dim>
					<dim>30</dim>
					<dim>30</dim>
				</port>
			</output>
		</layer>
		<layer id="134" name="Mul_115" type="Swish" version="opset4">
			<input>
				<port id="0" precision="FP16">
					<dim>1</dim>
					<dim>108</dim>
					<dim>30</dim>
					<dim>30</dim>
				</port>
			</input>
			<output>
				<port id="1" precision="FP16" names="onnx::Concat_501">
					<dim>1</dim>
					<dim>108</dim>
					<dim>30</dim>
					<dim>30</dim>
				</port>
			</output>
		</layer>
		<layer id="135" name="onnx::Conv_1286" type="Const" version="opset1">
			<data element_type="f16" shape="108, 112, 1, 1" offset="445872" size="24192"/>
			<output>
				<port id="0" precision="FP16" names="onnx::Conv_1286">
					<dim>108</dim>
					<dim>112</dim>
					<dim>1</dim>
					<dim>1</dim>
				</port>
			</output>
		</layer>
		<layer id="136" name="Conv_116/WithoutBiases" type="Convolution" version="opset1">
			<data strides="1, 1" dilations="1, 1" pads_begin="0, 0" pads_end="0, 0" auto_pad="explicit"/>
			<input>
				<port id="0" precision="FP16">
					<dim>1</dim>
					<dim>112</dim>
					<dim>60</dim>
					<dim>60</dim>
				</port>
				<port id="1" precision="FP16">
					<dim>108</dim>
					<dim>112</dim>
					<dim>1</dim>
					<dim>1</dim>
				</port>
			</input>
			<output>
				<port id="2" precision="FP16">
					<dim>1</dim>
					<dim>108</dim>
					<dim>60</dim>
					<dim>60</dim>
				</port>
			</output>
		</layer>
		<layer id="137" name="Conv_116/Dims9369" type="Const" version="opset1">
			<data element_type="f16" shape="1, 108, 1, 1" offset="470064" size="216"/>
			<output>
				<port id="0" precision="FP16">
					<dim>1</dim>
					<dim>108</dim>
					<dim>1</dim>
					<dim>1</dim>
				</port>
			</output>
		</layer>
		<layer id="138" name="Conv_116" type="Add" version="opset1">
			<data auto_broadcast="numpy"/>
			<input>
				<port id="0" precision="FP16">
					<dim>1</dim>
					<dim>108</dim>
					<dim>60</dim>
					<dim>60</dim>
				</port>
				<port id="1" precision="FP16">
					<dim>1</dim>
					<dim>108</dim>
					<dim>1</dim>
					<dim>1</dim>
				</port>
			</input>
			<output>
				<port id="2" precision="FP16" names="onnx::Sigmoid_1285">
					<dim>1</dim>
					<dim>108</dim>
					<dim>60</dim>
					<dim>60</dim>
				</port>
			</output>
		</layer>
		<layer id="139" name="Mul_118" type="Swish" version="opset4">
			<input>
				<port id="0" precision="FP16">
					<dim>1</dim>
					<dim>108</dim>
					<dim>60</dim>
					<dim>60</dim>
				</port>
			</input>
			<output>
				<port id="1" precision="FP16" names="input.128">
					<dim>1</dim>
					<dim>108</dim>
					<dim>60</dim>
					<dim>60</dim>
				</port>
			</output>
		</layer>
		<layer id="140" name="onnx::Conv_1289" type="Const" version="opset1">
			<data element_type="f16" shape="108, 1, 1, 3, 3" offset="470280" size="1944"/>
			<output>
				<port id="0" precision="FP16" names="onnx::Conv_1289">
					<dim>108</dim>
					<dim>1</dim>
					<dim>1</dim>
					<dim>3</dim>
					<dim>3</dim>
				</port>
			</output>
		</layer>
		<layer id="141" name="Conv_119/WithoutBiases" type="GroupConvolution" version="opset1">
			<data strides="2, 2" pads_begin="1, 1" pads_end="1, 1" dilations="1, 1" auto_pad="explicit"/>
			<input>
				<port id="0" precision="FP16">
					<dim>1</dim>
					<dim>108</dim>
					<dim>60</dim>
					<dim>60</dim>
				</port>
				<port id="1" precision="FP16">
					<dim>108</dim>
					<dim>1</dim>
					<dim>1</dim>
					<dim>3</dim>
					<dim>3</dim>
				</port>
			</input>
			<output>
				<port id="2" precision="FP16">
					<dim>1</dim>
					<dim>108</dim>
					<dim>30</dim>
					<dim>30</dim>
				</port>
			</output>
		</layer>
		<layer id="142" name="Conv_119/Dims9285" type="Const" version="opset1">
			<data element_type="f16" shape="1, 108, 1, 1" offset="472224" size="216"/>
			<output>
				<port id="0" precision="FP16">
					<dim>1</dim>
					<dim>108</dim>
					<dim>1</dim>
					<dim>1</dim>
				</port>
			</output>
		</layer>
		<layer id="143" name="Conv_119" type="Add" version="opset1">
			<data auto_broadcast="numpy"/>
			<input>
				<port id="0" precision="FP16">
					<dim>1</dim>
					<dim>108</dim>
					<dim>30</dim>
					<dim>30</dim>
				</port>
				<port id="1" precision="FP16">
					<dim>1</dim>
					<dim>108</dim>
					<dim>1</dim>
					<dim>1</dim>
				</port>
			</input>
			<output>
				<port id="2" precision="FP16" names="input.136">
					<dim>1</dim>
					<dim>108</dim>
					<dim>30</dim>
					<dim>30</dim>
				</port>
			</output>
		</layer>
		<layer id="144" name="onnx::Conv_1292" type="Const" version="opset1">
			<data element_type="f16" shape="108, 108, 1, 1" offset="472440" size="23328"/>
			<output>
				<port id="0" precision="FP16" names="onnx::Conv_1292">
					<dim>108</dim>
					<dim>108</dim>
					<dim>1</dim>
					<dim>1</dim>
				</port>
			</output>
		</layer>
		<layer id="145" name="Conv_120/WithoutBiases" type="Convolution" version="opset1">
			<data strides="1, 1" dilations="1, 1" pads_begin="0, 0" pads_end="0, 0" auto_pad="explicit"/>
			<input>
				<port id="0" precision="FP16">
					<dim>1</dim>
					<dim>108</dim>
					<dim>30</dim>
					<dim>30</dim>
				</port>
				<port id="1" precision="FP16">
					<dim>108</dim>
					<dim>108</dim>
					<dim>1</dim>
					<dim>1</dim>
				</port>
			</input>
			<output>
				<port id="2" precision="FP16">
					<dim>1</dim>
					<dim>108</dim>
					<dim>30</dim>
					<dim>30</dim>
				</port>
			</output>
		</layer>
		<layer id="146" name="Conv_120/Dims9645" type="Const" version="opset1">
			<data element_type="f16" shape="1, 108, 1, 1" offset="495768" size="216"/>
			<output>
				<port id="0" precision="FP16">
					<dim>1</dim>
					<dim>108</dim>
					<dim>1</dim>
					<dim>1</dim>
				</port>
			</output>
		</layer>
		<layer id="147" name="Conv_120" type="Add" version="opset1">
			<data auto_broadcast="numpy"/>
			<input>
				<port id="0" precision="FP16">
					<dim>1</dim>
					<dim>108</dim>
					<dim>30</dim>
					<dim>30</dim>
				</port>
				<port id="1" precision="FP16">
					<dim>1</dim>
					<dim>108</dim>
					<dim>1</dim>
					<dim>1</dim>
				</port>
			</input>
			<output>
				<port id="2" precision="FP16" names="onnx::Sigmoid_1291">
					<dim>1</dim>
					<dim>108</dim>
					<dim>30</dim>
					<dim>30</dim>
				</port>
			</output>
		</layer>
		<layer id="148" name="Mul_122" type="Swish" version="opset4">
			<input>
				<port id="0" precision="FP16">
					<dim>1</dim>
					<dim>108</dim>
					<dim>30</dim>
					<dim>30</dim>
				</port>
			</input>
			<output>
				<port id="1" precision="FP16" names="onnx::Concat_511">
					<dim>1</dim>
					<dim>108</dim>
					<dim>30</dim>
					<dim>30</dim>
				</port>
			</output>
		</layer>
		<layer id="149" name="Concat_123" type="Concat" version="opset1">
			<data axis="1"/>
			<input>
				<port id="0" precision="FP16">
					<dim>1</dim>
					<dim>108</dim>
					<dim>30</dim>
					<dim>30</dim>
				</port>
				<port id="1" precision="FP16">
					<dim>1</dim>
					<dim>108</dim>
					<dim>30</dim>
					<dim>30</dim>
				</port>
			</input>
			<output>
				<port id="2" precision="FP16" names="out.15">
					<dim>1</dim>
					<dim>216</dim>
					<dim>30</dim>
					<dim>30</dim>
				</port>
			</output>
		</layer>
		<layer id="150" name="Constant_124" type="Const" version="opset1">
			<data element_type="i64" shape="5" offset="495984" size="40"/>
			<output>
				<port id="0" precision="I64" names="onnx::Reshape_513">
					<dim>5</dim>
				</port>
			</output>
		</layer>
		<layer id="151" name="Reshape_125" type="Reshape" version="opset1">
			<data special_zero="true"/>
			<input>
				<port id="0" precision="FP16">
					<dim>1</dim>
					<dim>216</dim>
					<dim>30</dim>
					<dim>30</dim>
				</port>
				<port id="1" precision="I64">
					<dim>5</dim>
				</port>
			</input>
			<output>
				<port id="2" precision="FP16" names="onnx::Transpose_514">
					<dim>1</dim>
					<dim>2</dim>
					<dim>108</dim>
					<dim>30</dim>
					<dim>30</dim>
				</port>
			</output>
		</layer>
		<layer id="152" name="949" type="Const" version="opset1">
			<data element_type="i64" shape="5" offset="377464" size="40"/>
			<output>
				<port id="0" precision="I64">
					<dim>5</dim>
				</port>
			</output>
		</layer>
		<layer id="153" name="Transpose_126" type="Transpose" version="opset1">
			<input>
				<port id="0" precision="FP16">
					<dim>1</dim>
					<dim>2</dim>
					<dim>108</dim>
					<dim>30</dim>
					<dim>30</dim>
				</port>
				<port id="1" precision="I64">
					<dim>5</dim>
				</port>
			</input>
			<output>
				<port id="2" precision="FP16" names="onnx::Reshape_515">
					<dim>1</dim>
					<dim>108</dim>
					<dim>2</dim>
					<dim>30</dim>
					<dim>30</dim>
				</port>
			</output>
		</layer>
		<layer id="154" name="Constant_127" type="Const" version="opset1">
			<data element_type="i64" shape="4" offset="496024" size="32"/>
			<output>
				<port id="0" precision="I64" names="onnx::Reshape_516">
					<dim>4</dim>
				</port>
			</output>
		</layer>
		<layer id="155" name="Reshape_128" type="Reshape" version="opset1">
			<data special_zero="true"/>
			<input>
				<port id="0" precision="FP16">
					<dim>1</dim>
					<dim>108</dim>
					<dim>2</dim>
					<dim>30</dim>
					<dim>30</dim>
				</port>
				<port id="1" precision="I64">
					<dim>4</dim>
				</port>
			</input>
			<output>
				<port id="2" precision="FP16" names="onnx::Shape_517">
					<dim>1</dim>
					<dim>216</dim>
					<dim>30</dim>
					<dim>30</dim>
				</port>
			</output>
		</layer>
		<layer id="156" name="1380130809" type="Const" version="opset1">
			<data element_type="i64" shape="" offset="377536" size="8"/>
			<output>
				<port id="0" precision="I64"/>
			</output>
		</layer>
		<layer id="157" name="1380330902" type="Const" version="opset1">
			<data element_type="i64" shape="2" offset="496056" size="16"/>
			<output>
				<port id="0" precision="I64">
					<dim>2</dim>
				</port>
			</output>
		</layer>
		<layer id="158" name="Slice_139/Split" type="VariadicSplit" version="opset1">
			<input>
				<port id="0" precision="FP16">
					<dim>1</dim>
					<dim>216</dim>
					<dim>30</dim>
					<dim>30</dim>
				</port>
				<port id="1" precision="I64"/>
				<port id="2" precision="I64">
					<dim>2</dim>
				</port>
			</input>
			<output>
				<port id="3" precision="FP16" names="onnx::Concat_528">
					<dim>1</dim>
					<dim>108</dim>
					<dim>30</dim>
					<dim>30</dim>
				</port>
				<port id="4" precision="FP16" names="onnx::Conv_531">
					<dim>1</dim>
					<dim>108</dim>
					<dim>30</dim>
					<dim>30</dim>
				</port>
			</output>
		</layer>
		<layer id="159" name="onnx::Conv_1295" type="Const" version="opset1">
			<data element_type="f16" shape="108, 108, 1, 1" offset="496072" size="23328"/>
			<output>
				<port id="0" precision="FP16" names="onnx::Conv_1295">
					<dim>108</dim>
					<dim>108</dim>
					<dim>1</dim>
					<dim>1</dim>
				</port>
			</output>
		</layer>
		<layer id="160" name="Conv_143/WithoutBiases" type="Convolution" version="opset1">
			<data strides="1, 1" dilations="1, 1" pads_begin="0, 0" pads_end="0, 0" auto_pad="explicit"/>
			<input>
				<port id="0" precision="FP16">
					<dim>1</dim>
					<dim>108</dim>
					<dim>30</dim>
					<dim>30</dim>
				</port>
				<port id="1" precision="FP16">
					<dim>108</dim>
					<dim>108</dim>
					<dim>1</dim>
					<dim>1</dim>
				</port>
			</input>
			<output>
				<port id="2" precision="FP16">
					<dim>1</dim>
					<dim>108</dim>
					<dim>30</dim>
					<dim>30</dim>
				</port>
			</output>
		</layer>
		<layer id="161" name="Conv_143/Dims9207" type="Const" version="opset1">
			<data element_type="f16" shape="1, 108, 1, 1" offset="519400" size="216"/>
			<output>
				<port id="0" precision="FP16">
					<dim>1</dim>
					<dim>108</dim>
					<dim>1</dim>
					<dim>1</dim>
				</port>
			</output>
		</layer>
		<layer id="162" name="Conv_143" type="Add" version="opset1">
			<data auto_broadcast="numpy"/>
			<input>
				<port id="0" precision="FP16">
					<dim>1</dim>
					<dim>108</dim>
					<dim>30</dim>
					<dim>30</dim>
				</port>
				<port id="1" precision="FP16">
					<dim>1</dim>
					<dim>108</dim>
					<dim>1</dim>
					<dim>1</dim>
				</port>
			</input>
			<output>
				<port id="2" precision="FP16" names="onnx::Sigmoid_1294">
					<dim>1</dim>
					<dim>108</dim>
					<dim>30</dim>
					<dim>30</dim>
				</port>
			</output>
		</layer>
		<layer id="163" name="Mul_145" type="Swish" version="opset4">
			<input>
				<port id="0" precision="FP16">
					<dim>1</dim>
					<dim>108</dim>
					<dim>30</dim>
					<dim>30</dim>
				</port>
			</input>
			<output>
				<port id="1" precision="FP16" names="input.148">
					<dim>1</dim>
					<dim>108</dim>
					<dim>30</dim>
					<dim>30</dim>
				</port>
			</output>
		</layer>
		<layer id="164" name="onnx::Conv_1298" type="Const" version="opset1">
			<data element_type="f16" shape="108, 1, 1, 3, 3" offset="519616" size="1944"/>
			<output>
				<port id="0" precision="FP16" names="onnx::Conv_1298">
					<dim>108</dim>
					<dim>1</dim>
					<dim>1</dim>
					<dim>3</dim>
					<dim>3</dim>
				</port>
			</output>
		</layer>
		<layer id="165" name="Conv_146/WithoutBiases" type="GroupConvolution" version="opset1">
			<data strides="1, 1" pads_begin="1, 1" pads_end="1, 1" dilations="1, 1" auto_pad="explicit"/>
			<input>
				<port id="0" precision="FP16">
					<dim>1</dim>
					<dim>108</dim>
					<dim>30</dim>
					<dim>30</dim>
				</port>
				<port id="1" precision="FP16">
					<dim>108</dim>
					<dim>1</dim>
					<dim>1</dim>
					<dim>3</dim>
					<dim>3</dim>
				</port>
			</input>
			<output>
				<port id="2" precision="FP16">
					<dim>1</dim>
					<dim>108</dim>
					<dim>30</dim>
					<dim>30</dim>
				</port>
			</output>
		</layer>
		<layer id="166" name="Conv_146/Dims9507" type="Const" version="opset1">
			<data element_type="f16" shape="1, 108, 1, 1" offset="521560" size="216"/>
			<output>
				<port id="0" precision="FP16">
					<dim>1</dim>
					<dim>108</dim>
					<dim>1</dim>
					<dim>1</dim>
				</port>
			</output>
		</layer>
		<layer id="167" name="Conv_146" type="Add" version="opset1">
			<data auto_broadcast="numpy"/>
			<input>
				<port id="0" precision="FP16">
					<dim>1</dim>
					<dim>108</dim>
					<dim>30</dim>
					<dim>30</dim>
				</port>
				<port id="1" precision="FP16">
					<dim>1</dim>
					<dim>108</dim>
					<dim>1</dim>
					<dim>1</dim>
				</port>
			</input>
			<output>
				<port id="2" precision="FP16" names="input.156">
					<dim>1</dim>
					<dim>108</dim>
					<dim>30</dim>
					<dim>30</dim>
				</port>
			</output>
		</layer>
		<layer id="168" name="onnx::Conv_1301" type="Const" version="opset1">
			<data element_type="f16" shape="108, 108, 1, 1" offset="521776" size="23328"/>
			<output>
				<port id="0" precision="FP16" names="onnx::Conv_1301">
					<dim>108</dim>
					<dim>108</dim>
					<dim>1</dim>
					<dim>1</dim>
				</port>
			</output>
		</layer>
		<layer id="169" name="Conv_147/WithoutBiases" type="Convolution" version="opset1">
			<data strides="1, 1" dilations="1, 1" pads_begin="0, 0" pads_end="0, 0" auto_pad="explicit"/>
			<input>
				<port id="0" precision="FP16">
					<dim>1</dim>
					<dim>108</dim>
					<dim>30</dim>
					<dim>30</dim>
				</port>
				<port id="1" precision="FP16">
					<dim>108</dim>
					<dim>108</dim>
					<dim>1</dim>
					<dim>1</dim>
				</port>
			</input>
			<output>
				<port id="2" precision="FP16">
					<dim>1</dim>
					<dim>108</dim>
					<dim>30</dim>
					<dim>30</dim>
				</port>
			</output>
		</layer>
		<layer id="170" name="Conv_147/Dims9357" type="Const" version="opset1">
			<data element_type="f16" shape="1, 108, 1, 1" offset="545104" size="216"/>
			<output>
				<port id="0" precision="FP16">
					<dim>1</dim>
					<dim>108</dim>
					<dim>1</dim>
					<dim>1</dim>
				</port>
			</output>
		</layer>
		<layer id="171" name="Conv_147" type="Add" version="opset1">
			<data auto_broadcast="numpy"/>
			<input>
				<port id="0" precision="FP16">
					<dim>1</dim>
					<dim>108</dim>
					<dim>30</dim>
					<dim>30</dim>
				</port>
				<port id="1" precision="FP16">
					<dim>1</dim>
					<dim>108</dim>
					<dim>1</dim>
					<dim>1</dim>
				</port>
			</input>
			<output>
				<port id="2" precision="FP16" names="onnx::Sigmoid_1300">
					<dim>1</dim>
					<dim>108</dim>
					<dim>30</dim>
					<dim>30</dim>
				</port>
			</output>
		</layer>
		<layer id="172" name="Mul_149" type="Swish" version="opset4">
			<input>
				<port id="0" precision="FP16">
					<dim>1</dim>
					<dim>108</dim>
					<dim>30</dim>
					<dim>30</dim>
				</port>
			</input>
			<output>
				<port id="1" precision="FP16" names="onnx::Concat_541">
					<dim>1</dim>
					<dim>108</dim>
					<dim>30</dim>
					<dim>30</dim>
				</port>
			</output>
		</layer>
		<layer id="173" name="Concat_150" type="Concat" version="opset1">
			<data axis="1"/>
			<input>
				<port id="0" precision="FP16">
					<dim>1</dim>
					<dim>108</dim>
					<dim>30</dim>
					<dim>30</dim>
				</port>
				<port id="1" precision="FP16">
					<dim>1</dim>
					<dim>108</dim>
					<dim>30</dim>
					<dim>30</dim>
				</port>
			</input>
			<output>
				<port id="2" precision="FP16" names="out.19">
					<dim>1</dim>
					<dim>216</dim>
					<dim>30</dim>
					<dim>30</dim>
				</port>
			</output>
		</layer>
		<layer id="174" name="Constant_151" type="Const" version="opset1">
			<data element_type="i64" shape="5" offset="495984" size="40"/>
			<output>
				<port id="0" precision="I64" names="onnx::Reshape_543">
					<dim>5</dim>
				</port>
			</output>
		</layer>
		<layer id="175" name="Reshape_152" type="Reshape" version="opset1">
			<data special_zero="true"/>
			<input>
				<port id="0" precision="FP16">
					<dim>1</dim>
					<dim>216</dim>
					<dim>30</dim>
					<dim>30</dim>
				</port>
				<port id="1" precision="I64">
					<dim>5</dim>
				</port>
			</input>
			<output>
				<port id="2" precision="FP16" names="onnx::Transpose_544">
					<dim>1</dim>
					<dim>2</dim>
					<dim>108</dim>
					<dim>30</dim>
					<dim>30</dim>
				</port>
			</output>
		</layer>
		<layer id="176" name="945" type="Const" version="opset1">
			<data element_type="i64" shape="5" offset="377464" size="40"/>
			<output>
				<port id="0" precision="I64">
					<dim>5</dim>
				</port>
			</output>
		</layer>
		<layer id="177" name="Transpose_153" type="Transpose" version="opset1">
			<input>
				<port id="0" precision="FP16">
					<dim>1</dim>
					<dim>2</dim>
					<dim>108</dim>
					<dim>30</dim>
					<dim>30</dim>
				</port>
				<port id="1" precision="I64">
					<dim>5</dim>
				</port>
			</input>
			<output>
				<port id="2" precision="FP16" names="onnx::Reshape_545">
					<dim>1</dim>
					<dim>108</dim>
					<dim>2</dim>
					<dim>30</dim>
					<dim>30</dim>
				</port>
			</output>
		</layer>
		<layer id="178" name="Constant_154" type="Const" version="opset1">
			<data element_type="i64" shape="4" offset="496024" size="32"/>
			<output>
				<port id="0" precision="I64" names="onnx::Reshape_546">
					<dim>4</dim>
				</port>
			</output>
		</layer>
		<layer id="179" name="Reshape_155" type="Reshape" version="opset1">
			<data special_zero="true"/>
			<input>
				<port id="0" precision="FP16">
					<dim>1</dim>
					<dim>108</dim>
					<dim>2</dim>
					<dim>30</dim>
					<dim>30</dim>
				</port>
				<port id="1" precision="I64">
					<dim>4</dim>
				</port>
			</input>
			<output>
				<port id="2" precision="FP16" names="onnx::Shape_547">
					<dim>1</dim>
					<dim>216</dim>
					<dim>30</dim>
					<dim>30</dim>
				</port>
			</output>
		</layer>
		<layer id="180" name="1380631205" type="Const" version="opset1">
			<data element_type="i64" shape="" offset="377536" size="8"/>
			<output>
				<port id="0" precision="I64"/>
			</output>
		</layer>
		<layer id="181" name="1380831172" type="Const" version="opset1">
			<data element_type="i64" shape="2" offset="496056" size="16"/>
			<output>
				<port id="0" precision="I64">
					<dim>2</dim>
				</port>
			</output>
		</layer>
		<layer id="182" name="Slice_166/Split" type="VariadicSplit" version="opset1">
			<input>
				<port id="0" precision="FP16">
					<dim>1</dim>
					<dim>216</dim>
					<dim>30</dim>
					<dim>30</dim>
				</port>
				<port id="1" precision="I64"/>
				<port id="2" precision="I64">
					<dim>2</dim>
				</port>
			</input>
			<output>
				<port id="3" precision="FP16" names="onnx::Concat_558">
					<dim>1</dim>
					<dim>108</dim>
					<dim>30</dim>
					<dim>30</dim>
				</port>
				<port id="4" precision="FP16" names="onnx::Conv_561">
					<dim>1</dim>
					<dim>108</dim>
					<dim>30</dim>
					<dim>30</dim>
				</port>
			</output>
		</layer>
		<layer id="183" name="onnx::Conv_1304" type="Const" version="opset1">
			<data element_type="f16" shape="108, 108, 1, 1" offset="545320" size="23328"/>
			<output>
				<port id="0" precision="FP16" names="onnx::Conv_1304">
					<dim>108</dim>
					<dim>108</dim>
					<dim>1</dim>
					<dim>1</dim>
				</port>
			</output>
		</layer>
		<layer id="184" name="Conv_170/WithoutBiases" type="Convolution" version="opset1">
			<data strides="1, 1" dilations="1, 1" pads_begin="0, 0" pads_end="0, 0" auto_pad="explicit"/>
			<input>
				<port id="0" precision="FP16">
					<dim>1</dim>
					<dim>108</dim>
					<dim>30</dim>
					<dim>30</dim>
				</port>
				<port id="1" precision="FP16">
					<dim>108</dim>
					<dim>108</dim>
					<dim>1</dim>
					<dim>1</dim>
				</port>
			</input>
			<output>
				<port id="2" precision="FP16">
					<dim>1</dim>
					<dim>108</dim>
					<dim>30</dim>
					<dim>30</dim>
				</port>
			</output>
		</layer>
		<layer id="185" name="Conv_170/Dims9393" type="Const" version="opset1">
			<data element_type="f16" shape="1, 108, 1, 1" offset="568648" size="216"/>
			<output>
				<port id="0" precision="FP16">
					<dim>1</dim>
					<dim>108</dim>
					<dim>1</dim>
					<dim>1</dim>
				</port>
			</output>
		</layer>
		<layer id="186" name="Conv_170" type="Add" version="opset1">
			<data auto_broadcast="numpy"/>
			<input>
				<port id="0" precision="FP16">
					<dim>1</dim>
					<dim>108</dim>
					<dim>30</dim>
					<dim>30</dim>
				</port>
				<port id="1" precision="FP16">
					<dim>1</dim>
					<dim>108</dim>
					<dim>1</dim>
					<dim>1</dim>
				</port>
			</input>
			<output>
				<port id="2" precision="FP16" names="onnx::Sigmoid_1303">
					<dim>1</dim>
					<dim>108</dim>
					<dim>30</dim>
					<dim>30</dim>
				</port>
			</output>
		</layer>
		<layer id="187" name="Mul_172" type="Swish" version="opset4">
			<input>
				<port id="0" precision="FP16">
					<dim>1</dim>
					<dim>108</dim>
					<dim>30</dim>
					<dim>30</dim>
				</port>
			</input>
			<output>
				<port id="1" precision="FP16" names="input.168">
					<dim>1</dim>
					<dim>108</dim>
					<dim>30</dim>
					<dim>30</dim>
				</port>
			</output>
		</layer>
		<layer id="188" name="onnx::Conv_1307" type="Const" version="opset1">
			<data element_type="f16" shape="108, 1, 1, 3, 3" offset="568864" size="1944"/>
			<output>
				<port id="0" precision="FP16" names="onnx::Conv_1307">
					<dim>108</dim>
					<dim>1</dim>
					<dim>1</dim>
					<dim>3</dim>
					<dim>3</dim>
				</port>
			</output>
		</layer>
		<layer id="189" name="Conv_173/WithoutBiases" type="GroupConvolution" version="opset1">
			<data strides="1, 1" pads_begin="1, 1" pads_end="1, 1" dilations="1, 1" auto_pad="explicit"/>
			<input>
				<port id="0" precision="FP16">
					<dim>1</dim>
					<dim>108</dim>
					<dim>30</dim>
					<dim>30</dim>
				</port>
				<port id="1" precision="FP16">
					<dim>108</dim>
					<dim>1</dim>
					<dim>1</dim>
					<dim>3</dim>
					<dim>3</dim>
				</port>
			</input>
			<output>
				<port id="2" precision="FP16">
					<dim>1</dim>
					<dim>108</dim>
					<dim>30</dim>
					<dim>30</dim>
				</port>
			</output>
		</layer>
		<layer id="190" name="Conv_173/Dims9261" type="Const" version="opset1">
			<data element_type="f16" shape="1, 108, 1, 1" offset="570808" size="216"/>
			<output>
				<port id="0" precision="FP16">
					<dim>1</dim>
					<dim>108</dim>
					<dim>1</dim>
					<dim>1</dim>
				</port>
			</output>
		</layer>
		<layer id="191" name="Conv_173" type="Add" version="opset1">
			<data auto_broadcast="numpy"/>
			<input>
				<port id="0" precision="FP16">
					<dim>1</dim>
					<dim>108</dim>
					<dim>30</dim>
					<dim>30</dim>
				</port>
				<port id="1" precision="FP16">
					<dim>1</dim>
					<dim>108</dim>
					<dim>1</dim>
					<dim>1</dim>
				</port>
			</input>
			<output>
				<port id="2" precision="FP16" names="input.176">
					<dim>1</dim>
					<dim>108</dim>
					<dim>30</dim>
					<dim>30</dim>
				</port>
			</output>
		</layer>
		<layer id="192" name="onnx::Conv_1310" type="Const" version="opset1">
			<data element_type="f16" shape="108, 108, 1, 1" offset="571024" size="23328"/>
			<output>
				<port id="0" precision="FP16" names="onnx::Conv_1310">
					<dim>108</dim>
					<dim>108</dim>
					<dim>1</dim>
					<dim>1</dim>
				</port>
			</output>
		</layer>
		<layer id="193" name="Conv_174/WithoutBiases" type="Convolution" version="opset1">
			<data strides="1, 1" dilations="1, 1" pads_begin="0, 0" pads_end="0, 0" auto_pad="explicit"/>
			<input>
				<port id="0" precision="FP16">
					<dim>1</dim>
					<dim>108</dim>
					<dim>30</dim>
					<dim>30</dim>
				</port>
				<port id="1" precision="FP16">
					<dim>108</dim>
					<dim>108</dim>
					<dim>1</dim>
					<dim>1</dim>
				</port>
			</input>
			<output>
				<port id="2" precision="FP16">
					<dim>1</dim>
					<dim>108</dim>
					<dim>30</dim>
					<dim>30</dim>
				</port>
			</output>
		</layer>
		<layer id="194" name="Conv_174/Dims9489" type="Const" version="opset1">
			<data element_type="f16" shape="1, 108, 1, 1" offset="594352" size="216"/>
			<output>
				<port id="0" precision="FP16">
					<dim>1</dim>
					<dim>108</dim>
					<dim>1</dim>
					<dim>1</dim>
				</port>
			</output>
		</layer>
		<layer id="195" name="Conv_174" type="Add" version="opset1">
			<data auto_broadcast="numpy"/>
			<input>
				<port id="0" precision="FP16">
					<dim>1</dim>
					<dim>108</dim>
					<dim>30</dim>
					<dim>30</dim>
				</port>
				<port id="1" precision="FP16">
					<dim>1</dim>
					<dim>108</dim>
					<dim>1</dim>
					<dim>1</dim>
				</port>
			</input>
			<output>
				<port id="2" precision="FP16" names="onnx::Sigmoid_1309">
					<dim>1</dim>
					<dim>108</dim>
					<dim>30</dim>
					<dim>30</dim>
				</port>
			</output>
		</layer>
		<layer id="196" name="Mul_176" type="Swish" version="opset4">
			<input>
				<port id="0" precision="FP16">
					<dim>1</dim>
					<dim>108</dim>
					<dim>30</dim>
					<dim>30</dim>
				</port>
			</input>
			<output>
				<port id="1" precision="FP16" names="onnx::Concat_571">
					<dim>1</dim>
					<dim>108</dim>
					<dim>30</dim>
					<dim>30</dim>
				</port>
			</output>
		</layer>
		<layer id="197" name="Concat_177" type="Concat" version="opset1">
			<data axis="1"/>
			<input>
				<port id="0" precision="FP16">
					<dim>1</dim>
					<dim>108</dim>
					<dim>30</dim>
					<dim>30</dim>
				</port>
				<port id="1" precision="FP16">
					<dim>1</dim>
					<dim>108</dim>
					<dim>30</dim>
					<dim>30</dim>
				</port>
			</input>
			<output>
				<port id="2" precision="FP16" names="out.23">
					<dim>1</dim>
					<dim>216</dim>
					<dim>30</dim>
					<dim>30</dim>
				</port>
			</output>
		</layer>
		<layer id="198" name="Constant_178" type="Const" version="opset1">
			<data element_type="i64" shape="5" offset="495984" size="40"/>
			<output>
				<port id="0" precision="I64" names="onnx::Reshape_573">
					<dim>5</dim>
				</port>
			</output>
		</layer>
		<layer id="199" name="Reshape_179" type="Reshape" version="opset1">
			<data special_zero="true"/>
			<input>
				<port id="0" precision="FP16">
					<dim>1</dim>
					<dim>216</dim>
					<dim>30</dim>
					<dim>30</dim>
				</port>
				<port id="1" precision="I64">
					<dim>5</dim>
				</port>
			</input>
			<output>
				<port id="2" precision="FP16" names="onnx::Transpose_574">
					<dim>1</dim>
					<dim>2</dim>
					<dim>108</dim>
					<dim>30</dim>
					<dim>30</dim>
				</port>
			</output>
		</layer>
		<layer id="200" name="946" type="Const" version="opset1">
			<data element_type="i64" shape="5" offset="377464" size="40"/>
			<output>
				<port id="0" precision="I64">
					<dim>5</dim>
				</port>
			</output>
		</layer>
		<layer id="201" name="Transpose_180" type="Transpose" version="opset1">
			<input>
				<port id="0" precision="FP16">
					<dim>1</dim>
					<dim>2</dim>
					<dim>108</dim>
					<dim>30</dim>
					<dim>30</dim>
				</port>
				<port id="1" precision="I64">
					<dim>5</dim>
				</port>
			</input>
			<output>
				<port id="2" precision="FP16" names="onnx::Reshape_575">
					<dim>1</dim>
					<dim>108</dim>
					<dim>2</dim>
					<dim>30</dim>
					<dim>30</dim>
				</port>
			</output>
		</layer>
		<layer id="202" name="Constant_181" type="Const" version="opset1">
			<data element_type="i64" shape="4" offset="496024" size="32"/>
			<output>
				<port id="0" precision="I64" names="onnx::Reshape_576">
					<dim>4</dim>
				</port>
			</output>
		</layer>
		<layer id="203" name="Reshape_182" type="Reshape" version="opset1">
			<data special_zero="true"/>
			<input>
				<port id="0" precision="FP16">
					<dim>1</dim>
					<dim>108</dim>
					<dim>2</dim>
					<dim>30</dim>
					<dim>30</dim>
				</port>
				<port id="1" precision="I64">
					<dim>4</dim>
				</port>
			</input>
			<output>
				<port id="2" precision="FP16" names="onnx::Shape_577">
					<dim>1</dim>
					<dim>216</dim>
					<dim>30</dim>
					<dim>30</dim>
				</port>
			</output>
		</layer>
		<layer id="204" name="1381131403" type="Const" version="opset1">
			<data element_type="i64" shape="" offset="377536" size="8"/>
			<output>
				<port id="0" precision="I64"/>
			</output>
		</layer>
		<layer id="205" name="1381331562" type="Const" version="opset1">
			<data element_type="i64" shape="2" offset="496056" size="16"/>
			<output>
				<port id="0" precision="I64">
					<dim>2</dim>
				</port>
			</output>
		</layer>
		<layer id="206" name="Slice_193/Split" type="VariadicSplit" version="opset1">
			<input>
				<port id="0" precision="FP16">
					<dim>1</dim>
					<dim>216</dim>
					<dim>30</dim>
					<dim>30</dim>
				</port>
				<port id="1" precision="I64"/>
				<port id="2" precision="I64">
					<dim>2</dim>
				</port>
			</input>
			<output>
				<port id="3" precision="FP16" names="onnx::Concat_588">
					<dim>1</dim>
					<dim>108</dim>
					<dim>30</dim>
					<dim>30</dim>
				</port>
				<port id="4" precision="FP16" names="onnx::Conv_591">
					<dim>1</dim>
					<dim>108</dim>
					<dim>30</dim>
					<dim>30</dim>
				</port>
			</output>
		</layer>
		<layer id="207" name="onnx::Conv_1313" type="Const" version="opset1">
			<data element_type="f16" shape="108, 108, 1, 1" offset="594568" size="23328"/>
			<output>
				<port id="0" precision="FP16" names="onnx::Conv_1313">
					<dim>108</dim>
					<dim>108</dim>
					<dim>1</dim>
					<dim>1</dim>
				</port>
			</output>
		</layer>
		<layer id="208" name="Conv_197/WithoutBiases" type="Convolution" version="opset1">
			<data strides="1, 1" dilations="1, 1" pads_begin="0, 0" pads_end="0, 0" auto_pad="explicit"/>
			<input>
				<port id="0" precision="FP16">
					<dim>1</dim>
					<dim>108</dim>
					<dim>30</dim>
					<dim>30</dim>
				</port>
				<port id="1" precision="FP16">
					<dim>108</dim>
					<dim>108</dim>
					<dim>1</dim>
					<dim>1</dim>
				</port>
			</input>
			<output>
				<port id="2" precision="FP16">
					<dim>1</dim>
					<dim>108</dim>
					<dim>30</dim>
					<dim>30</dim>
				</port>
			</output>
		</layer>
		<layer id="209" name="Conv_197/Dims9231" type="Const" version="opset1">
			<data element_type="f16" shape="1, 108, 1, 1" offset="617896" size="216"/>
			<output>
				<port id="0" precision="FP16">
					<dim>1</dim>
					<dim>108</dim>
					<dim>1</dim>
					<dim>1</dim>
				</port>
			</output>
		</layer>
		<layer id="210" name="Conv_197" type="Add" version="opset1">
			<data auto_broadcast="numpy"/>
			<input>
				<port id="0" precision="FP16">
					<dim>1</dim>
					<dim>108</dim>
					<dim>30</dim>
					<dim>30</dim>
				</port>
				<port id="1" precision="FP16">
					<dim>1</dim>
					<dim>108</dim>
					<dim>1</dim>
					<dim>1</dim>
				</port>
			</input>
			<output>
				<port id="2" precision="FP16" names="onnx::Sigmoid_1312">
					<dim>1</dim>
					<dim>108</dim>
					<dim>30</dim>
					<dim>30</dim>
				</port>
			</output>
		</layer>
		<layer id="211" name="Mul_199" type="Swish" version="opset4">
			<input>
				<port id="0" precision="FP16">
					<dim>1</dim>
					<dim>108</dim>
					<dim>30</dim>
					<dim>30</dim>
				</port>
			</input>
			<output>
				<port id="1" precision="FP16" names="input.188">
					<dim>1</dim>
					<dim>108</dim>
					<dim>30</dim>
					<dim>30</dim>
				</port>
			</output>
		</layer>
		<layer id="212" name="onnx::Conv_1316" type="Const" version="opset1">
			<data element_type="f16" shape="108, 1, 1, 3, 3" offset="618112" size="1944"/>
			<output>
				<port id="0" precision="FP16" names="onnx::Conv_1316">
					<dim>108</dim>
					<dim>1</dim>
					<dim>1</dim>
					<dim>3</dim>
					<dim>3</dim>
				</port>
			</output>
		</layer>
		<layer id="213" name="Conv_200/WithoutBiases" type="GroupConvolution" version="opset1">
			<data strides="1, 1" pads_begin="1, 1" pads_end="1, 1" dilations="1, 1" auto_pad="explicit"/>
			<input>
				<port id="0" precision="FP16">
					<dim>1</dim>
					<dim>108</dim>
					<dim>30</dim>
					<dim>30</dim>
				</port>
				<port id="1" precision="FP16">
					<dim>108</dim>
					<dim>1</dim>
					<dim>1</dim>
					<dim>3</dim>
					<dim>3</dim>
				</port>
			</input>
			<output>
				<port id="2" precision="FP16">
					<dim>1</dim>
					<dim>108</dim>
					<dim>30</dim>
					<dim>30</dim>
				</port>
			</output>
		</layer>
		<layer id="214" name="Conv_200/Dims9327" type="Const" version="opset1">
			<data element_type="f16" shape="1, 108, 1, 1" offset="620056" size="216"/>
			<output>
				<port id="0" precision="FP16">
					<dim>1</dim>
					<dim>108</dim>
					<dim>1</dim>
					<dim>1</dim>
				</port>
			</output>
		</layer>
		<layer id="215" name="Conv_200" type="Add" version="opset1">
			<data auto_broadcast="numpy"/>
			<input>
				<port id="0" precision="FP16">
					<dim>1</dim>
					<dim>108</dim>
					<dim>30</dim>
					<dim>30</dim>
				</port>
				<port id="1" precision="FP16">
					<dim>1</dim>
					<dim>108</dim>
					<dim>1</dim>
					<dim>1</dim>
				</port>
			</input>
			<output>
				<port id="2" precision="FP16" names="input.196">
					<dim>1</dim>
					<dim>108</dim>
					<dim>30</dim>
					<dim>30</dim>
				</port>
			</output>
		</layer>
		<layer id="216" name="onnx::Conv_1319" type="Const" version="opset1">
			<data element_type="f16" shape="108, 108, 1, 1" offset="620272" size="23328"/>
			<output>
				<port id="0" precision="FP16" names="onnx::Conv_1319">
					<dim>108</dim>
					<dim>108</dim>
					<dim>1</dim>
					<dim>1</dim>
				</port>
			</output>
		</layer>
		<layer id="217" name="Conv_201/WithoutBiases" type="Convolution" version="opset1">
			<data strides="1, 1" dilations="1, 1" pads_begin="0, 0" pads_end="0, 0" auto_pad="explicit"/>
			<input>
				<port id="0" precision="FP16">
					<dim>1</dim>
					<dim>108</dim>
					<dim>30</dim>
					<dim>30</dim>
				</port>
				<port id="1" precision="FP16">
					<dim>108</dim>
					<dim>108</dim>
					<dim>1</dim>
					<dim>1</dim>
				</port>
			</input>
			<output>
				<port id="2" precision="FP16">
					<dim>1</dim>
					<dim>108</dim>
					<dim>30</dim>
					<dim>30</dim>
				</port>
			</output>
		</layer>
		<layer id="218" name="Conv_201/Dims9531" type="Const" version="opset1">
			<data element_type="f16" shape="1, 108, 1, 1" offset="643600" size="216"/>
			<output>
				<port id="0" precision="FP16">
					<dim>1</dim>
					<dim>108</dim>
					<dim>1</dim>
					<dim>1</dim>
				</port>
			</output>
		</layer>
		<layer id="219" name="Conv_201" type="Add" version="opset1">
			<data auto_broadcast="numpy"/>
			<input>
				<port id="0" precision="FP16">
					<dim>1</dim>
					<dim>108</dim>
					<dim>30</dim>
					<dim>30</dim>
				</port>
				<port id="1" precision="FP16">
					<dim>1</dim>
					<dim>108</dim>
					<dim>1</dim>
					<dim>1</dim>
				</port>
			</input>
			<output>
				<port id="2" precision="FP16" names="onnx::Sigmoid_1318">
					<dim>1</dim>
					<dim>108</dim>
					<dim>30</dim>
					<dim>30</dim>
				</port>
			</output>
		</layer>
		<layer id="220" name="Mul_203" type="Swish" version="opset4">
			<input>
				<port id="0" precision="FP16">
					<dim>1</dim>
					<dim>108</dim>
					<dim>30</dim>
					<dim>30</dim>
				</port>
			</input>
			<output>
				<port id="1" precision="FP16" names="onnx::Concat_601">
					<dim>1</dim>
					<dim>108</dim>
					<dim>30</dim>
					<dim>30</dim>
				</port>
			</output>
		</layer>
		<layer id="221" name="Concat_204" type="Concat" version="opset1">
			<data axis="1"/>
			<input>
				<port id="0" precision="FP16">
					<dim>1</dim>
					<dim>108</dim>
					<dim>30</dim>
					<dim>30</dim>
				</port>
				<port id="1" precision="FP16">
					<dim>1</dim>
					<dim>108</dim>
					<dim>30</dim>
					<dim>30</dim>
				</port>
			</input>
			<output>
				<port id="2" precision="FP16" names="out.27">
					<dim>1</dim>
					<dim>216</dim>
					<dim>30</dim>
					<dim>30</dim>
				</port>
			</output>
		</layer>
		<layer id="222" name="Constant_205" type="Const" version="opset1">
			<data element_type="i64" shape="5" offset="495984" size="40"/>
			<output>
				<port id="0" precision="I64" names="onnx::Reshape_603">
					<dim>5</dim>
				</port>
			</output>
		</layer>
		<layer id="223" name="Reshape_206" type="Reshape" version="opset1">
			<data special_zero="true"/>
			<input>
				<port id="0" precision="FP16">
					<dim>1</dim>
					<dim>216</dim>
					<dim>30</dim>
					<dim>30</dim>
				</port>
				<port id="1" precision="I64">
					<dim>5</dim>
				</port>
			</input>
			<output>
				<port id="2" precision="FP16" names="onnx::Transpose_604">
					<dim>1</dim>
					<dim>2</dim>
					<dim>108</dim>
					<dim>30</dim>
					<dim>30</dim>
				</port>
			</output>
		</layer>
		<layer id="224" name="935" type="Const" version="opset1">
			<data element_type="i64" shape="5" offset="377464" size="40"/>
			<output>
				<port id="0" precision="I64">
					<dim>5</dim>
				</port>
			</output>
		</layer>
		<layer id="225" name="Transpose_207" type="Transpose" version="opset1">
			<input>
				<port id="0" precision="FP16">
					<dim>1</dim>
					<dim>2</dim>
					<dim>108</dim>
					<dim>30</dim>
					<dim>30</dim>
				</port>
				<port id="1" precision="I64">
					<dim>5</dim>
				</port>
			</input>
			<output>
				<port id="2" precision="FP16" names="onnx::Reshape_605">
					<dim>1</dim>
					<dim>108</dim>
					<dim>2</dim>
					<dim>30</dim>
					<dim>30</dim>
				</port>
			</output>
		</layer>
		<layer id="226" name="Constant_208" type="Const" version="opset1">
			<data element_type="i64" shape="4" offset="496024" size="32"/>
			<output>
				<port id="0" precision="I64" names="onnx::Reshape_606">
					<dim>4</dim>
				</port>
			</output>
		</layer>
		<layer id="227" name="Reshape_209" type="Reshape" version="opset1">
			<data special_zero="true"/>
			<input>
				<port id="0" precision="FP16">
					<dim>1</dim>
					<dim>108</dim>
					<dim>2</dim>
					<dim>30</dim>
					<dim>30</dim>
				</port>
				<port id="1" precision="I64">
					<dim>4</dim>
				</port>
			</input>
			<output>
				<port id="2" precision="FP16" names="onnx::Shape_607">
					<dim>1</dim>
					<dim>216</dim>
					<dim>30</dim>
					<dim>30</dim>
				</port>
			</output>
		</layer>
		<layer id="228" name="1381630785" type="Const" version="opset1">
			<data element_type="i64" shape="" offset="377536" size="8"/>
			<output>
				<port id="0" precision="I64"/>
			</output>
		</layer>
		<layer id="229" name="1381831010" type="Const" version="opset1">
			<data element_type="i64" shape="2" offset="496056" size="16"/>
			<output>
				<port id="0" precision="I64">
					<dim>2</dim>
				</port>
			</output>
		</layer>
		<layer id="230" name="Slice_220/Split" type="VariadicSplit" version="opset1">
			<input>
				<port id="0" precision="FP16">
					<dim>1</dim>
					<dim>216</dim>
					<dim>30</dim>
					<dim>30</dim>
				</port>
				<port id="1" precision="I64"/>
				<port id="2" precision="I64">
					<dim>2</dim>
				</port>
			</input>
			<output>
				<port id="3" precision="FP16" names="onnx::Concat_618">
					<dim>1</dim>
					<dim>108</dim>
					<dim>30</dim>
					<dim>30</dim>
				</port>
				<port id="4" precision="FP16" names="onnx::Conv_621">
					<dim>1</dim>
					<dim>108</dim>
					<dim>30</dim>
					<dim>30</dim>
				</port>
			</output>
		</layer>
		<layer id="231" name="onnx::Conv_1322" type="Const" version="opset1">
			<data element_type="f16" shape="108, 108, 1, 1" offset="643816" size="23328"/>
			<output>
				<port id="0" precision="FP16" names="onnx::Conv_1322">
					<dim>108</dim>
					<dim>108</dim>
					<dim>1</dim>
					<dim>1</dim>
				</port>
			</output>
		</layer>
		<layer id="232" name="Conv_224/WithoutBiases" type="Convolution" version="opset1">
			<data strides="1, 1" dilations="1, 1" pads_begin="0, 0" pads_end="0, 0" auto_pad="explicit"/>
			<input>
				<port id="0" precision="FP16">
					<dim>1</dim>
					<dim>108</dim>
					<dim>30</dim>
					<dim>30</dim>
				</port>
				<port id="1" precision="FP16">
					<dim>108</dim>
					<dim>108</dim>
					<dim>1</dim>
					<dim>1</dim>
				</port>
			</input>
			<output>
				<port id="2" precision="FP16">
					<dim>1</dim>
					<dim>108</dim>
					<dim>30</dim>
					<dim>30</dim>
				</port>
			</output>
		</layer>
		<layer id="233" name="Conv_224/Dims9615" type="Const" version="opset1">
			<data element_type="f16" shape="1, 108, 1, 1" offset="667144" size="216"/>
			<output>
				<port id="0" precision="FP16">
					<dim>1</dim>
					<dim>108</dim>
					<dim>1</dim>
					<dim>1</dim>
				</port>
			</output>
		</layer>
		<layer id="234" name="Conv_224" type="Add" version="opset1">
			<data auto_broadcast="numpy"/>
			<input>
				<port id="0" precision="FP16">
					<dim>1</dim>
					<dim>108</dim>
					<dim>30</dim>
					<dim>30</dim>
				</port>
				<port id="1" precision="FP16">
					<dim>1</dim>
					<dim>108</dim>
					<dim>1</dim>
					<dim>1</dim>
				</port>
			</input>
			<output>
				<port id="2" precision="FP16" names="onnx::Sigmoid_1321">
					<dim>1</dim>
					<dim>108</dim>
					<dim>30</dim>
					<dim>30</dim>
				</port>
			</output>
		</layer>
		<layer id="235" name="Mul_226" type="Swish" version="opset4">
			<input>
				<port id="0" precision="FP16">
					<dim>1</dim>
					<dim>108</dim>
					<dim>30</dim>
					<dim>30</dim>
				</port>
			</input>
			<output>
				<port id="1" precision="FP16" names="input.208">
					<dim>1</dim>
					<dim>108</dim>
					<dim>30</dim>
					<dim>30</dim>
				</port>
			</output>
		</layer>
		<layer id="236" name="onnx::Conv_1325" type="Const" version="opset1">
			<data element_type="f16" shape="108, 1, 1, 3, 3" offset="667360" size="1944"/>
			<output>
				<port id="0" precision="FP16" names="onnx::Conv_1325">
					<dim>108</dim>
					<dim>1</dim>
					<dim>1</dim>
					<dim>3</dim>
					<dim>3</dim>
				</port>
			</output>
		</layer>
		<layer id="237" name="Conv_227/WithoutBiases" type="GroupConvolution" version="opset1">
			<data strides="1, 1" pads_begin="1, 1" pads_end="1, 1" dilations="1, 1" auto_pad="explicit"/>
			<input>
				<port id="0" precision="FP16">
					<dim>1</dim>
					<dim>108</dim>
					<dim>30</dim>
					<dim>30</dim>
				</port>
				<port id="1" precision="FP16">
					<dim>108</dim>
					<dim>1</dim>
					<dim>1</dim>
					<dim>3</dim>
					<dim>3</dim>
				</port>
			</input>
			<output>
				<port id="2" precision="FP16">
					<dim>1</dim>
					<dim>108</dim>
					<dim>30</dim>
					<dim>30</dim>
				</port>
			</output>
		</layer>
		<layer id="238" name="Conv_227/Dims9309" type="Const" version="opset1">
			<data element_type="f16" shape="1, 108, 1, 1" offset="669304" size="216"/>
			<output>
				<port id="0" precision="FP16">
					<dim>1</dim>
					<dim>108</dim>
					<dim>1</dim>
					<dim>1</dim>
				</port>
			</output>
		</layer>
		<layer id="239" name="Conv_227" type="Add" version="opset1">
			<data auto_broadcast="numpy"/>
			<input>
				<port id="0" precision="FP16">
					<dim>1</dim>
					<dim>108</dim>
					<dim>30</dim>
					<dim>30</dim>
				</port>
				<port id="1" precision="FP16">
					<dim>1</dim>
					<dim>108</dim>
					<dim>1</dim>
					<dim>1</dim>
				</port>
			</input>
			<output>
				<port id="2" precision="FP16" names="input.216">
					<dim>1</dim>
					<dim>108</dim>
					<dim>30</dim>
					<dim>30</dim>
				</port>
			</output>
		</layer>
		<layer id="240" name="onnx::Conv_1328" type="Const" version="opset1">
			<data element_type="f16" shape="108, 108, 1, 1" offset="669520" size="23328"/>
			<output>
				<port id="0" precision="FP16" names="onnx::Conv_1328">
					<dim>108</dim>
					<dim>108</dim>
					<dim>1</dim>
					<dim>1</dim>
				</port>
			</output>
		</layer>
		<layer id="241" name="Conv_228/WithoutBiases" type="Convolution" version="opset1">
			<data strides="1, 1" dilations="1, 1" pads_begin="0, 0" pads_end="0, 0" auto_pad="explicit"/>
			<input>
				<port id="0" precision="FP16">
					<dim>1</dim>
					<dim>108</dim>
					<dim>30</dim>
					<dim>30</dim>
				</port>
				<port id="1" precision="FP16">
					<dim>108</dim>
					<dim>108</dim>
					<dim>1</dim>
					<dim>1</dim>
				</port>
			</input>
			<output>
				<port id="2" precision="FP16">
					<dim>1</dim>
					<dim>108</dim>
					<dim>30</dim>
					<dim>30</dim>
				</port>
			</output>
		</layer>
		<layer id="242" name="Conv_228/Dims9279" type="Const" version="opset1">
			<data element_type="f16" shape="1, 108, 1, 1" offset="692848" size="216"/>
			<output>
				<port id="0" precision="FP16">
					<dim>1</dim>
					<dim>108</dim>
					<dim>1</dim>
					<dim>1</dim>
				</port>
			</output>
		</layer>
		<layer id="243" name="Conv_228" type="Add" version="opset1">
			<data auto_broadcast="numpy"/>
			<input>
				<port id="0" precision="FP16">
					<dim>1</dim>
					<dim>108</dim>
					<dim>30</dim>
					<dim>30</dim>
				</port>
				<port id="1" precision="FP16">
					<dim>1</dim>
					<dim>108</dim>
					<dim>1</dim>
					<dim>1</dim>
				</port>
			</input>
			<output>
				<port id="2" precision="FP16" names="onnx::Sigmoid_1327">
					<dim>1</dim>
					<dim>108</dim>
					<dim>30</dim>
					<dim>30</dim>
				</port>
			</output>
		</layer>
		<layer id="244" name="Mul_230" type="Swish" version="opset4">
			<input>
				<port id="0" precision="FP16">
					<dim>1</dim>
					<dim>108</dim>
					<dim>30</dim>
					<dim>30</dim>
				</port>
			</input>
			<output>
				<port id="1" precision="FP16" names="onnx::Concat_631">
					<dim>1</dim>
					<dim>108</dim>
					<dim>30</dim>
					<dim>30</dim>
				</port>
			</output>
		</layer>
		<layer id="245" name="Concat_231" type="Concat" version="opset1">
			<data axis="1"/>
			<input>
				<port id="0" precision="FP16">
					<dim>1</dim>
					<dim>108</dim>
					<dim>30</dim>
					<dim>30</dim>
				</port>
				<port id="1" precision="FP16">
					<dim>1</dim>
					<dim>108</dim>
					<dim>30</dim>
					<dim>30</dim>
				</port>
			</input>
			<output>
				<port id="2" precision="FP16" names="out.31">
					<dim>1</dim>
					<dim>216</dim>
					<dim>30</dim>
					<dim>30</dim>
				</port>
			</output>
		</layer>
		<layer id="246" name="Constant_232" type="Const" version="opset1">
			<data element_type="i64" shape="5" offset="495984" size="40"/>
			<output>
				<port id="0" precision="I64" names="onnx::Reshape_633">
					<dim>5</dim>
				</port>
			</output>
		</layer>
		<layer id="247" name="Reshape_233" type="Reshape" version="opset1">
			<data special_zero="true"/>
			<input>
				<port id="0" precision="FP16">
					<dim>1</dim>
					<dim>216</dim>
					<dim>30</dim>
					<dim>30</dim>
				</port>
				<port id="1" precision="I64">
					<dim>5</dim>
				</port>
			</input>
			<output>
				<port id="2" precision="FP16" names="onnx::Transpose_634">
					<dim>1</dim>
					<dim>2</dim>
					<dim>108</dim>
					<dim>30</dim>
					<dim>30</dim>
				</port>
			</output>
		</layer>
		<layer id="248" name="942" type="Const" version="opset1">
			<data element_type="i64" shape="5" offset="377464" size="40"/>
			<output>
				<port id="0" precision="I64">
					<dim>5</dim>
				</port>
			</output>
		</layer>
		<layer id="249" name="Transpose_234" type="Transpose" version="opset1">
			<input>
				<port id="0" precision="FP16">
					<dim>1</dim>
					<dim>2</dim>
					<dim>108</dim>
					<dim>30</dim>
					<dim>30</dim>
				</port>
				<port id="1" precision="I64">
					<dim>5</dim>
				</port>
			</input>
			<output>
				<port id="2" precision="FP16" names="onnx::Reshape_635">
					<dim>1</dim>
					<dim>108</dim>
					<dim>2</dim>
					<dim>30</dim>
					<dim>30</dim>
				</port>
			</output>
		</layer>
		<layer id="250" name="Constant_235" type="Const" version="opset1">
			<data element_type="i64" shape="4" offset="496024" size="32"/>
			<output>
				<port id="0" precision="I64" names="onnx::Reshape_636">
					<dim>4</dim>
				</port>
			</output>
		</layer>
		<layer id="251" name="Reshape_236" type="Reshape" version="opset1">
			<data special_zero="true"/>
			<input>
				<port id="0" precision="FP16">
					<dim>1</dim>
					<dim>108</dim>
					<dim>2</dim>
					<dim>30</dim>
					<dim>30</dim>
				</port>
				<port id="1" precision="I64">
					<dim>4</dim>
				</port>
			</input>
			<output>
				<port id="2" precision="FP16" names="onnx::Shape_637">
					<dim>1</dim>
					<dim>216</dim>
					<dim>30</dim>
					<dim>30</dim>
				</port>
			</output>
		</layer>
		<layer id="252" name="1382131382" type="Const" version="opset1">
			<data element_type="i64" shape="" offset="377536" size="8"/>
			<output>
				<port id="0" precision="I64"/>
			</output>
		</layer>
		<layer id="253" name="1382330644" type="Const" version="opset1">
			<data element_type="i64" shape="2" offset="496056" size="16"/>
			<output>
				<port id="0" precision="I64">
					<dim>2</dim>
				</port>
			</output>
		</layer>
		<layer id="254" name="Slice_247/Split" type="VariadicSplit" version="opset1">
			<input>
				<port id="0" precision="FP16">
					<dim>1</dim>
					<dim>216</dim>
					<dim>30</dim>
					<dim>30</dim>
				</port>
				<port id="1" precision="I64"/>
				<port id="2" precision="I64">
					<dim>2</dim>
				</port>
			</input>
			<output>
				<port id="3" precision="FP16" names="onnx::Concat_648">
					<dim>1</dim>
					<dim>108</dim>
					<dim>30</dim>
					<dim>30</dim>
				</port>
				<port id="4" precision="FP16" names="onnx::Conv_651">
					<dim>1</dim>
					<dim>108</dim>
					<dim>30</dim>
					<dim>30</dim>
				</port>
			</output>
		</layer>
		<layer id="255" name="onnx::Conv_1331" type="Const" version="opset1">
			<data element_type="f16" shape="108, 108, 1, 1" offset="693064" size="23328"/>
			<output>
				<port id="0" precision="FP16" names="onnx::Conv_1331">
					<dim>108</dim>
					<dim>108</dim>
					<dim>1</dim>
					<dim>1</dim>
				</port>
			</output>
		</layer>
		<layer id="256" name="Conv_251/WithoutBiases" type="Convolution" version="opset1">
			<data strides="1, 1" dilations="1, 1" pads_begin="0, 0" pads_end="0, 0" auto_pad="explicit"/>
			<input>
				<port id="0" precision="FP16">
					<dim>1</dim>
					<dim>108</dim>
					<dim>30</dim>
					<dim>30</dim>
				</port>
				<port id="1" precision="FP16">
					<dim>108</dim>
					<dim>108</dim>
					<dim>1</dim>
					<dim>1</dim>
				</port>
			</input>
			<output>
				<port id="2" precision="FP16">
					<dim>1</dim>
					<dim>108</dim>
					<dim>30</dim>
					<dim>30</dim>
				</port>
			</output>
		</layer>
		<layer id="257" name="Conv_251/Dims9219" type="Const" version="opset1">
			<data element_type="f16" shape="1, 108, 1, 1" offset="716392" size="216"/>
			<output>
				<port id="0" precision="FP16">
					<dim>1</dim>
					<dim>108</dim>
					<dim>1</dim>
					<dim>1</dim>
				</port>
			</output>
		</layer>
		<layer id="258" name="Conv_251" type="Add" version="opset1">
			<data auto_broadcast="numpy"/>
			<input>
				<port id="0" precision="FP16">
					<dim>1</dim>
					<dim>108</dim>
					<dim>30</dim>
					<dim>30</dim>
				</port>
				<port id="1" precision="FP16">
					<dim>1</dim>
					<dim>108</dim>
					<dim>1</dim>
					<dim>1</dim>
				</port>
			</input>
			<output>
				<port id="2" precision="FP16" names="onnx::Sigmoid_1330">
					<dim>1</dim>
					<dim>108</dim>
					<dim>30</dim>
					<dim>30</dim>
				</port>
			</output>
		</layer>
		<layer id="259" name="Mul_253" type="Swish" version="opset4">
			<input>
				<port id="0" precision="FP16">
					<dim>1</dim>
					<dim>108</dim>
					<dim>30</dim>
					<dim>30</dim>
				</port>
			</input>
			<output>
				<port id="1" precision="FP16" names="input.228">
					<dim>1</dim>
					<dim>108</dim>
					<dim>30</dim>
					<dim>30</dim>
				</port>
			</output>
		</layer>
		<layer id="260" name="onnx::Conv_1334" type="Const" version="opset1">
			<data element_type="f16" shape="108, 1, 1, 3, 3" offset="716608" size="1944"/>
			<output>
				<port id="0" precision="FP16" names="onnx::Conv_1334">
					<dim>108</dim>
					<dim>1</dim>
					<dim>1</dim>
					<dim>3</dim>
					<dim>3</dim>
				</port>
			</output>
		</layer>
		<layer id="261" name="Conv_254/WithoutBiases" type="GroupConvolution" version="opset1">
			<data strides="1, 1" pads_begin="1, 1" pads_end="1, 1" dilations="1, 1" auto_pad="explicit"/>
			<input>
				<port id="0" precision="FP16">
					<dim>1</dim>
					<dim>108</dim>
					<dim>30</dim>
					<dim>30</dim>
				</port>
				<port id="1" precision="FP16">
					<dim>108</dim>
					<dim>1</dim>
					<dim>1</dim>
					<dim>3</dim>
					<dim>3</dim>
				</port>
			</input>
			<output>
				<port id="2" precision="FP16">
					<dim>1</dim>
					<dim>108</dim>
					<dim>30</dim>
					<dim>30</dim>
				</port>
			</output>
		</layer>
		<layer id="262" name="Conv_254/Dims9315" type="Const" version="opset1">
			<data element_type="f16" shape="1, 108, 1, 1" offset="718552" size="216"/>
			<output>
				<port id="0" precision="FP16">
					<dim>1</dim>
					<dim>108</dim>
					<dim>1</dim>
					<dim>1</dim>
				</port>
			</output>
		</layer>
		<layer id="263" name="Conv_254" type="Add" version="opset1">
			<data auto_broadcast="numpy"/>
			<input>
				<port id="0" precision="FP16">
					<dim>1</dim>
					<dim>108</dim>
					<dim>30</dim>
					<dim>30</dim>
				</port>
				<port id="1" precision="FP16">
					<dim>1</dim>
					<dim>108</dim>
					<dim>1</dim>
					<dim>1</dim>
				</port>
			</input>
			<output>
				<port id="2" precision="FP16" names="input.236">
					<dim>1</dim>
					<dim>108</dim>
					<dim>30</dim>
					<dim>30</dim>
				</port>
			</output>
		</layer>
		<layer id="264" name="onnx::Conv_1337" type="Const" version="opset1">
			<data element_type="f16" shape="108, 108, 1, 1" offset="718768" size="23328"/>
			<output>
				<port id="0" precision="FP16" names="onnx::Conv_1337">
					<dim>108</dim>
					<dim>108</dim>
					<dim>1</dim>
					<dim>1</dim>
				</port>
			</output>
		</layer>
		<layer id="265" name="Conv_255/WithoutBiases" type="Convolution" version="opset1">
			<data strides="1, 1" dilations="1, 1" pads_begin="0, 0" pads_end="0, 0" auto_pad="explicit"/>
			<input>
				<port id="0" precision="FP16">
					<dim>1</dim>
					<dim>108</dim>
					<dim>30</dim>
					<dim>30</dim>
				</port>
				<port id="1" precision="FP16">
					<dim>108</dim>
					<dim>108</dim>
					<dim>1</dim>
					<dim>1</dim>
				</port>
			</input>
			<output>
				<port id="2" precision="FP16">
					<dim>1</dim>
					<dim>108</dim>
					<dim>30</dim>
					<dim>30</dim>
				</port>
			</output>
		</layer>
		<layer id="266" name="Conv_255/Dims9183" type="Const" version="opset1">
			<data element_type="f16" shape="1, 108, 1, 1" offset="742096" size="216"/>
			<output>
				<port id="0" precision="FP16">
					<dim>1</dim>
					<dim>108</dim>
					<dim>1</dim>
					<dim>1</dim>
				</port>
			</output>
		</layer>
		<layer id="267" name="Conv_255" type="Add" version="opset1">
			<data auto_broadcast="numpy"/>
			<input>
				<port id="0" precision="FP16">
					<dim>1</dim>
					<dim>108</dim>
					<dim>30</dim>
					<dim>30</dim>
				</port>
				<port id="1" precision="FP16">
					<dim>1</dim>
					<dim>108</dim>
					<dim>1</dim>
					<dim>1</dim>
				</port>
			</input>
			<output>
				<port id="2" precision="FP16" names="onnx::Sigmoid_1336">
					<dim>1</dim>
					<dim>108</dim>
					<dim>30</dim>
					<dim>30</dim>
				</port>
			</output>
		</layer>
		<layer id="268" name="Mul_257" type="Swish" version="opset4">
			<input>
				<port id="0" precision="FP16">
					<dim>1</dim>
					<dim>108</dim>
					<dim>30</dim>
					<dim>30</dim>
				</port>
			</input>
			<output>
				<port id="1" precision="FP16" names="onnx::Concat_661">
					<dim>1</dim>
					<dim>108</dim>
					<dim>30</dim>
					<dim>30</dim>
				</port>
			</output>
		</layer>
		<layer id="269" name="Concat_258" type="Concat" version="opset1">
			<data axis="1"/>
			<input>
				<port id="0" precision="FP16">
					<dim>1</dim>
					<dim>108</dim>
					<dim>30</dim>
					<dim>30</dim>
				</port>
				<port id="1" precision="FP16">
					<dim>1</dim>
					<dim>108</dim>
					<dim>30</dim>
					<dim>30</dim>
				</port>
			</input>
			<output>
				<port id="2" precision="FP16" names="out.35">
					<dim>1</dim>
					<dim>216</dim>
					<dim>30</dim>
					<dim>30</dim>
				</port>
			</output>
		</layer>
		<layer id="270" name="Constant_259" type="Const" version="opset1">
			<data element_type="i64" shape="5" offset="495984" size="40"/>
			<output>
				<port id="0" precision="I64" names="onnx::Reshape_663">
					<dim>5</dim>
				</port>
			</output>
		</layer>
		<layer id="271" name="Reshape_260" type="Reshape" version="opset1">
			<data special_zero="true"/>
			<input>
				<port id="0" precision="FP16">
					<dim>1</dim>
					<dim>216</dim>
					<dim>30</dim>
					<dim>30</dim>
				</port>
				<port id="1" precision="I64">
					<dim>5</dim>
				</port>
			</input>
			<output>
				<port id="2" precision="FP16" names="onnx::Transpose_664">
					<dim>1</dim>
					<dim>2</dim>
					<dim>108</dim>
					<dim>30</dim>
					<dim>30</dim>
				</port>
			</output>
		</layer>
		<layer id="272" name="936" type="Const" version="opset1">
			<data element_type="i64" shape="5" offset="377464" size="40"/>
			<output>
				<port id="0" precision="I64">
					<dim>5</dim>
				</port>
			</output>
		</layer>
		<layer id="273" name="Transpose_261" type="Transpose" version="opset1">
			<input>
				<port id="0" precision="FP16">
					<dim>1</dim>
					<dim>2</dim>
					<dim>108</dim>
					<dim>30</dim>
					<dim>30</dim>
				</port>
				<port id="1" precision="I64">
					<dim>5</dim>
				</port>
			</input>
			<output>
				<port id="2" precision="FP16" names="onnx::Reshape_665">
					<dim>1</dim>
					<dim>108</dim>
					<dim>2</dim>
					<dim>30</dim>
					<dim>30</dim>
				</port>
			</output>
		</layer>
		<layer id="274" name="Constant_262" type="Const" version="opset1">
			<data element_type="i64" shape="4" offset="496024" size="32"/>
			<output>
				<port id="0" precision="I64" names="onnx::Reshape_666">
					<dim>4</dim>
				</port>
			</output>
		</layer>
		<layer id="275" name="Reshape_263" type="Reshape" version="opset1">
			<data special_zero="true"/>
			<input>
				<port id="0" precision="FP16">
					<dim>1</dim>
					<dim>108</dim>
					<dim>2</dim>
					<dim>30</dim>
					<dim>30</dim>
				</port>
				<port id="1" precision="I64">
					<dim>4</dim>
				</port>
			</input>
			<output>
				<port id="2" precision="FP16" names="onnx::Shape_667">
					<dim>1</dim>
					<dim>216</dim>
					<dim>30</dim>
					<dim>30</dim>
				</port>
			</output>
		</layer>
		<layer id="276" name="1382630962" type="Const" version="opset1">
			<data element_type="i64" shape="" offset="377536" size="8"/>
			<output>
				<port id="0" precision="I64"/>
			</output>
		</layer>
		<layer id="277" name="1382830758" type="Const" version="opset1">
			<data element_type="i64" shape="2" offset="496056" size="16"/>
			<output>
				<port id="0" precision="I64">
					<dim>2</dim>
				</port>
			</output>
		</layer>
		<layer id="278" name="Slice_274/Split" type="VariadicSplit" version="opset1">
			<input>
				<port id="0" precision="FP16">
					<dim>1</dim>
					<dim>216</dim>
					<dim>30</dim>
					<dim>30</dim>
				</port>
				<port id="1" precision="I64"/>
				<port id="2" precision="I64">
					<dim>2</dim>
				</port>
			</input>
			<output>
				<port id="3" precision="FP16" names="onnx::Concat_678">
					<dim>1</dim>
					<dim>108</dim>
					<dim>30</dim>
					<dim>30</dim>
				</port>
				<port id="4" precision="FP16" names="onnx::Conv_681">
					<dim>1</dim>
					<dim>108</dim>
					<dim>30</dim>
					<dim>30</dim>
				</port>
			</output>
		</layer>
		<layer id="279" name="onnx::Conv_1340" type="Const" version="opset1">
			<data element_type="f16" shape="108, 108, 1, 1" offset="742312" size="23328"/>
			<output>
				<port id="0" precision="FP16" names="onnx::Conv_1340">
					<dim>108</dim>
					<dim>108</dim>
					<dim>1</dim>
					<dim>1</dim>
				</port>
			</output>
		</layer>
		<layer id="280" name="Conv_278/WithoutBiases" type="Convolution" version="opset1">
			<data strides="1, 1" dilations="1, 1" pads_begin="0, 0" pads_end="0, 0" auto_pad="explicit"/>
			<input>
				<port id="0" precision="FP16">
					<dim>1</dim>
					<dim>108</dim>
					<dim>30</dim>
					<dim>30</dim>
				</port>
				<port id="1" precision="FP16">
					<dim>108</dim>
					<dim>108</dim>
					<dim>1</dim>
					<dim>1</dim>
				</port>
			</input>
			<output>
				<port id="2" precision="FP16">
					<dim>1</dim>
					<dim>108</dim>
					<dim>30</dim>
					<dim>30</dim>
				</port>
			</output>
		</layer>
		<layer id="281" name="Conv_278/Dims9471" type="Const" version="opset1">
			<data element_type="f16" shape="1, 108, 1, 1" offset="765640" size="216"/>
			<output>
				<port id="0" precision="FP16">
					<dim>1</dim>
					<dim>108</dim>
					<dim>1</dim>
					<dim>1</dim>
				</port>
			</output>
		</layer>
		<layer id="282" name="Conv_278" type="Add" version="opset1">
			<data auto_broadcast="numpy"/>
			<input>
				<port id="0" precision="FP16">
					<dim>1</dim>
					<dim>108</dim>
					<dim>30</dim>
					<dim>30</dim>
				</port>
				<port id="1" precision="FP16">
					<dim>1</dim>
					<dim>108</dim>
					<dim>1</dim>
					<dim>1</dim>
				</port>
			</input>
			<output>
				<port id="2" precision="FP16" names="onnx::Sigmoid_1339">
					<dim>1</dim>
					<dim>108</dim>
					<dim>30</dim>
					<dim>30</dim>
				</port>
			</output>
		</layer>
		<layer id="283" name="Mul_280" type="Swish" version="opset4">
			<input>
				<port id="0" precision="FP16">
					<dim>1</dim>
					<dim>108</dim>
					<dim>30</dim>
					<dim>30</dim>
				</port>
			</input>
			<output>
				<port id="1" precision="FP16" names="input.248">
					<dim>1</dim>
					<dim>108</dim>
					<dim>30</dim>
					<dim>30</dim>
				</port>
			</output>
		</layer>
		<layer id="284" name="onnx::Conv_1343" type="Const" version="opset1">
			<data element_type="f16" shape="108, 1, 1, 3, 3" offset="765856" size="1944"/>
			<output>
				<port id="0" precision="FP16" names="onnx::Conv_1343">
					<dim>108</dim>
					<dim>1</dim>
					<dim>1</dim>
					<dim>3</dim>
					<dim>3</dim>
				</port>
			</output>
		</layer>
		<layer id="285" name="Conv_281/WithoutBiases" type="GroupConvolution" version="opset1">
			<data strides="1, 1" pads_begin="1, 1" pads_end="1, 1" dilations="1, 1" auto_pad="explicit"/>
			<input>
				<port id="0" precision="FP16">
					<dim>1</dim>
					<dim>108</dim>
					<dim>30</dim>
					<dim>30</dim>
				</port>
				<port id="1" precision="FP16">
					<dim>108</dim>
					<dim>1</dim>
					<dim>1</dim>
					<dim>3</dim>
					<dim>3</dim>
				</port>
			</input>
			<output>
				<port id="2" precision="FP16">
					<dim>1</dim>
					<dim>108</dim>
					<dim>30</dim>
					<dim>30</dim>
				</port>
			</output>
		</layer>
		<layer id="286" name="Conv_281/Dims9171" type="Const" version="opset1">
			<data element_type="f16" shape="1, 108, 1, 1" offset="767800" size="216"/>
			<output>
				<port id="0" precision="FP16">
					<dim>1</dim>
					<dim>108</dim>
					<dim>1</dim>
					<dim>1</dim>
				</port>
			</output>
		</layer>
		<layer id="287" name="Conv_281" type="Add" version="opset1">
			<data auto_broadcast="numpy"/>
			<input>
				<port id="0" precision="FP16">
					<dim>1</dim>
					<dim>108</dim>
					<dim>30</dim>
					<dim>30</dim>
				</port>
				<port id="1" precision="FP16">
					<dim>1</dim>
					<dim>108</dim>
					<dim>1</dim>
					<dim>1</dim>
				</port>
			</input>
			<output>
				<port id="2" precision="FP16" names="input.256">
					<dim>1</dim>
					<dim>108</dim>
					<dim>30</dim>
					<dim>30</dim>
				</port>
			</output>
		</layer>
		<layer id="288" name="onnx::Conv_1346" type="Const" version="opset1">
			<data element_type="f16" shape="108, 108, 1, 1" offset="768016" size="23328"/>
			<output>
				<port id="0" precision="FP16" names="onnx::Conv_1346">
					<dim>108</dim>
					<dim>108</dim>
					<dim>1</dim>
					<dim>1</dim>
				</port>
			</output>
		</layer>
		<layer id="289" name="Conv_282/WithoutBiases" type="Convolution" version="opset1">
			<data strides="1, 1" dilations="1, 1" pads_begin="0, 0" pads_end="0, 0" auto_pad="explicit"/>
			<input>
				<port id="0" precision="FP16">
					<dim>1</dim>
					<dim>108</dim>
					<dim>30</dim>
					<dim>30</dim>
				</port>
				<port id="1" precision="FP16">
					<dim>108</dim>
					<dim>108</dim>
					<dim>1</dim>
					<dim>1</dim>
				</port>
			</input>
			<output>
				<port id="2" precision="FP16">
					<dim>1</dim>
					<dim>108</dim>
					<dim>30</dim>
					<dim>30</dim>
				</port>
			</output>
		</layer>
		<layer id="290" name="Conv_282/Dims9225" type="Const" version="opset1">
			<data element_type="f16" shape="1, 108, 1, 1" offset="791344" size="216"/>
			<output>
				<port id="0" precision="FP16">
					<dim>1</dim>
					<dim>108</dim>
					<dim>1</dim>
					<dim>1</dim>
				</port>
			</output>
		</layer>
		<layer id="291" name="Conv_282" type="Add" version="opset1">
			<data auto_broadcast="numpy"/>
			<input>
				<port id="0" precision="FP16">
					<dim>1</dim>
					<dim>108</dim>
					<dim>30</dim>
					<dim>30</dim>
				</port>
				<port id="1" precision="FP16">
					<dim>1</dim>
					<dim>108</dim>
					<dim>1</dim>
					<dim>1</dim>
				</port>
			</input>
			<output>
				<port id="2" precision="FP16" names="onnx::Sigmoid_1345">
					<dim>1</dim>
					<dim>108</dim>
					<dim>30</dim>
					<dim>30</dim>
				</port>
			</output>
		</layer>
		<layer id="292" name="Mul_284" type="Swish" version="opset4">
			<input>
				<port id="0" precision="FP16">
					<dim>1</dim>
					<dim>108</dim>
					<dim>30</dim>
					<dim>30</dim>
				</port>
			</input>
			<output>
				<port id="1" precision="FP16" names="onnx::Concat_691">
					<dim>1</dim>
					<dim>108</dim>
					<dim>30</dim>
					<dim>30</dim>
				</port>
			</output>
		</layer>
		<layer id="293" name="Concat_285" type="Concat" version="opset1">
			<data axis="1"/>
			<input>
				<port id="0" precision="FP16">
					<dim>1</dim>
					<dim>108</dim>
					<dim>30</dim>
					<dim>30</dim>
				</port>
				<port id="1" precision="FP16">
					<dim>1</dim>
					<dim>108</dim>
					<dim>30</dim>
					<dim>30</dim>
				</port>
			</input>
			<output>
				<port id="2" precision="FP16" names="out.39">
					<dim>1</dim>
					<dim>216</dim>
					<dim>30</dim>
					<dim>30</dim>
				</port>
			</output>
		</layer>
		<layer id="294" name="Constant_286" type="Const" version="opset1">
			<data element_type="i64" shape="5" offset="495984" size="40"/>
			<output>
				<port id="0" precision="I64" names="onnx::Reshape_693">
					<dim>5</dim>
				</port>
			</output>
		</layer>
		<layer id="295" name="Reshape_287" type="Reshape" version="opset1">
			<data special_zero="true"/>
			<input>
				<port id="0" precision="FP16">
					<dim>1</dim>
					<dim>216</dim>
					<dim>30</dim>
					<dim>30</dim>
				</port>
				<port id="1" precision="I64">
					<dim>5</dim>
				</port>
			</input>
			<output>
				<port id="2" precision="FP16" names="onnx::Transpose_694">
					<dim>1</dim>
					<dim>2</dim>
					<dim>108</dim>
					<dim>30</dim>
					<dim>30</dim>
				</port>
			</output>
		</layer>
		<layer id="296" name="948" type="Const" version="opset1">
			<data element_type="i64" shape="5" offset="377464" size="40"/>
			<output>
				<port id="0" precision="I64">
					<dim>5</dim>
				</port>
			</output>
		</layer>
		<layer id="297" name="Transpose_288" type="Transpose" version="opset1">
			<input>
				<port id="0" precision="FP16">
					<dim>1</dim>
					<dim>2</dim>
					<dim>108</dim>
					<dim>30</dim>
					<dim>30</dim>
				</port>
				<port id="1" precision="I64">
					<dim>5</dim>
				</port>
			</input>
			<output>
				<port id="2" precision="FP16" names="onnx::Reshape_695">
					<dim>1</dim>
					<dim>108</dim>
					<dim>2</dim>
					<dim>30</dim>
					<dim>30</dim>
				</port>
			</output>
		</layer>
		<layer id="298" name="Constant_289" type="Const" version="opset1">
			<data element_type="i64" shape="4" offset="496024" size="32"/>
			<output>
				<port id="0" precision="I64" names="onnx::Reshape_696">
					<dim>4</dim>
				</port>
			</output>
		</layer>
		<layer id="299" name="Reshape_290" type="Reshape" version="opset1">
			<data special_zero="true"/>
			<input>
				<port id="0" precision="FP16">
					<dim>1</dim>
					<dim>108</dim>
					<dim>2</dim>
					<dim>30</dim>
					<dim>30</dim>
				</port>
				<port id="1" precision="I64">
					<dim>4</dim>
				</port>
			</input>
			<output>
				<port id="2" precision="FP16" names="input.264">
					<dim>1</dim>
					<dim>216</dim>
					<dim>30</dim>
					<dim>30</dim>
				</port>
			</output>
		</layer>
		<layer id="300" name="onnx::Conv_1349" type="Const" version="opset1">
			<data element_type="f16" shape="216, 1, 1, 3, 3" offset="791560" size="3888"/>
			<output>
				<port id="0" precision="FP16" names="onnx::Conv_1349">
					<dim>216</dim>
					<dim>1</dim>
					<dim>1</dim>
					<dim>3</dim>
					<dim>3</dim>
				</port>
			</output>
		</layer>
		<layer id="301" name="Conv_291/WithoutBiases" type="GroupConvolution" version="opset1">
			<data strides="2, 2" pads_begin="1, 1" pads_end="1, 1" dilations="1, 1" auto_pad="explicit"/>
			<input>
				<port id="0" precision="FP16">
					<dim>1</dim>
					<dim>216</dim>
					<dim>30</dim>
					<dim>30</dim>
				</port>
				<port id="1" precision="FP16">
					<dim>216</dim>
					<dim>1</dim>
					<dim>1</dim>
					<dim>3</dim>
					<dim>3</dim>
				</port>
			</input>
			<output>
				<port id="2" precision="FP16">
					<dim>1</dim>
					<dim>216</dim>
					<dim>15</dim>
					<dim>15</dim>
				</port>
			</output>
		</layer>
		<layer id="302" name="Conv_291/Dims9495" type="Const" version="opset1">
			<data element_type="f16" shape="1, 216, 1, 1" offset="795448" size="432"/>
			<output>
				<port id="0" precision="FP16">
					<dim>1</dim>
					<dim>216</dim>
					<dim>1</dim>
					<dim>1</dim>
				</port>
			</output>
		</layer>
		<layer id="303" name="Conv_291" type="Add" version="opset1">
			<data auto_broadcast="numpy"/>
			<input>
				<port id="0" precision="FP16">
					<dim>1</dim>
					<dim>216</dim>
					<dim>15</dim>
					<dim>15</dim>
				</port>
				<port id="1" precision="FP16">
					<dim>1</dim>
					<dim>216</dim>
					<dim>1</dim>
					<dim>1</dim>
				</port>
			</input>
			<output>
				<port id="2" precision="FP16" names="input.272">
					<dim>1</dim>
					<dim>216</dim>
					<dim>15</dim>
					<dim>15</dim>
				</port>
			</output>
		</layer>
		<layer id="304" name="onnx::Conv_1352" type="Const" version="opset1">
			<data element_type="f16" shape="212, 216, 1, 1" offset="795880" size="91584"/>
			<output>
				<port id="0" precision="FP16" names="onnx::Conv_1352">
					<dim>212</dim>
					<dim>216</dim>
					<dim>1</dim>
					<dim>1</dim>
				</port>
			</output>
		</layer>
		<layer id="305" name="Conv_292/WithoutBiases" type="Convolution" version="opset1">
			<data strides="1, 1" dilations="1, 1" pads_begin="0, 0" pads_end="0, 0" auto_pad="explicit"/>
			<input>
				<port id="0" precision="FP16">
					<dim>1</dim>
					<dim>216</dim>
					<dim>15</dim>
					<dim>15</dim>
				</port>
				<port id="1" precision="FP16">
					<dim>212</dim>
					<dim>216</dim>
					<dim>1</dim>
					<dim>1</dim>
				</port>
			</input>
			<output>
				<port id="2" precision="FP16">
					<dim>1</dim>
					<dim>212</dim>
					<dim>15</dim>
					<dim>15</dim>
				</port>
			</output>
		</layer>
		<layer id="306" name="Conv_292/Dims9441" type="Const" version="opset1">
			<data element_type="f16" shape="1, 212, 1, 1" offset="887464" size="424"/>
			<output>
				<port id="0" precision="FP16">
					<dim>1</dim>
					<dim>212</dim>
					<dim>1</dim>
					<dim>1</dim>
				</port>
			</output>
		</layer>
		<layer id="307" name="Conv_292" type="Add" version="opset1">
			<data auto_broadcast="numpy"/>
			<input>
				<port id="0" precision="FP16">
					<dim>1</dim>
					<dim>212</dim>
					<dim>15</dim>
					<dim>15</dim>
				</port>
				<port id="1" precision="FP16">
					<dim>1</dim>
					<dim>212</dim>
					<dim>1</dim>
					<dim>1</dim>
				</port>
			</input>
			<output>
				<port id="2" precision="FP16" names="onnx::Sigmoid_1351">
					<dim>1</dim>
					<dim>212</dim>
					<dim>15</dim>
					<dim>15</dim>
				</port>
			</output>
		</layer>
		<layer id="308" name="Mul_294" type="Swish" version="opset4">
			<input>
				<port id="0" precision="FP16">
					<dim>1</dim>
					<dim>212</dim>
					<dim>15</dim>
					<dim>15</dim>
				</port>
			</input>
			<output>
				<port id="1" precision="FP16" names="onnx::Concat_703">
					<dim>1</dim>
					<dim>212</dim>
					<dim>15</dim>
					<dim>15</dim>
				</port>
			</output>
		</layer>
		<layer id="309" name="onnx::Conv_1355" type="Const" version="opset1">
			<data element_type="f16" shape="212, 216, 1, 1" offset="887888" size="91584"/>
			<output>
				<port id="0" precision="FP16" names="onnx::Conv_1355">
					<dim>212</dim>
					<dim>216</dim>
					<dim>1</dim>
					<dim>1</dim>
				</port>
			</output>
		</layer>
		<layer id="310" name="Conv_295/WithoutBiases" type="Convolution" version="opset1">
			<data strides="1, 1" dilations="1, 1" pads_begin="0, 0" pads_end="0, 0" auto_pad="explicit"/>
			<input>
				<port id="0" precision="FP16">
					<dim>1</dim>
					<dim>216</dim>
					<dim>30</dim>
					<dim>30</dim>
				</port>
				<port id="1" precision="FP16">
					<dim>212</dim>
					<dim>216</dim>
					<dim>1</dim>
					<dim>1</dim>
				</port>
			</input>
			<output>
				<port id="2" precision="FP16">
					<dim>1</dim>
					<dim>212</dim>
					<dim>30</dim>
					<dim>30</dim>
				</port>
			</output>
		</layer>
		<layer id="311" name="Conv_295/Dims9561" type="Const" version="opset1">
			<data element_type="f16" shape="1, 212, 1, 1" offset="979472" size="424"/>
			<output>
				<port id="0" precision="FP16">
					<dim>1</dim>
					<dim>212</dim>
					<dim>1</dim>
					<dim>1</dim>
				</port>
			</output>
		</layer>
		<layer id="312" name="Conv_295" type="Add" version="opset1">
			<data auto_broadcast="numpy"/>
			<input>
				<port id="0" precision="FP16">
					<dim>1</dim>
					<dim>212</dim>
					<dim>30</dim>
					<dim>30</dim>
				</port>
				<port id="1" precision="FP16">
					<dim>1</dim>
					<dim>212</dim>
					<dim>1</dim>
					<dim>1</dim>
				</port>
			</input>
			<output>
				<port id="2" precision="FP16" names="onnx::Sigmoid_1354">
					<dim>1</dim>
					<dim>212</dim>
					<dim>30</dim>
					<dim>30</dim>
				</port>
			</output>
		</layer>
		<layer id="313" name="Mul_297" type="Swish" version="opset4">
			<input>
				<port id="0" precision="FP16">
					<dim>1</dim>
					<dim>212</dim>
					<dim>30</dim>
					<dim>30</dim>
				</port>
			</input>
			<output>
				<port id="1" precision="FP16" names="input.284">
					<dim>1</dim>
					<dim>212</dim>
					<dim>30</dim>
					<dim>30</dim>
				</port>
			</output>
		</layer>
		<layer id="314" name="onnx::Conv_1358" type="Const" version="opset1">
			<data element_type="f16" shape="212, 1, 1, 3, 3" offset="979896" size="3816"/>
			<output>
				<port id="0" precision="FP16" names="onnx::Conv_1358">
					<dim>212</dim>
					<dim>1</dim>
					<dim>1</dim>
					<dim>3</dim>
					<dim>3</dim>
				</port>
			</output>
		</layer>
		<layer id="315" name="Conv_298/WithoutBiases" type="GroupConvolution" version="opset1">
			<data strides="2, 2" pads_begin="1, 1" pads_end="1, 1" dilations="1, 1" auto_pad="explicit"/>
			<input>
				<port id="0" precision="FP16">
					<dim>1</dim>
					<dim>212</dim>
					<dim>30</dim>
					<dim>30</dim>
				</port>
				<port id="1" precision="FP16">
					<dim>212</dim>
					<dim>1</dim>
					<dim>1</dim>
					<dim>3</dim>
					<dim>3</dim>
				</port>
			</input>
			<output>
				<port id="2" precision="FP16">
					<dim>1</dim>
					<dim>212</dim>
					<dim>15</dim>
					<dim>15</dim>
				</port>
			</output>
		</layer>
		<layer id="316" name="Conv_298/Dims9399" type="Const" version="opset1">
			<data element_type="f16" shape="1, 212, 1, 1" offset="983712" size="424"/>
			<output>
				<port id="0" precision="FP16">
					<dim>1</dim>
					<dim>212</dim>
					<dim>1</dim>
					<dim>1</dim>
				</port>
			</output>
		</layer>
		<layer id="317" name="Conv_298" type="Add" version="opset1">
			<data auto_broadcast="numpy"/>
			<input>
				<port id="0" precision="FP16">
					<dim>1</dim>
					<dim>212</dim>
					<dim>15</dim>
					<dim>15</dim>
				</port>
				<port id="1" precision="FP16">
					<dim>1</dim>
					<dim>212</dim>
					<dim>1</dim>
					<dim>1</dim>
				</port>
			</input>
			<output>
				<port id="2" precision="FP16" names="input.292">
					<dim>1</dim>
					<dim>212</dim>
					<dim>15</dim>
					<dim>15</dim>
				</port>
			</output>
		</layer>
		<layer id="318" name="onnx::Conv_1361" type="Const" version="opset1">
			<data element_type="f16" shape="212, 212, 1, 1" offset="984136" size="89888"/>
			<output>
				<port id="0" precision="FP16" names="onnx::Conv_1361">
					<dim>212</dim>
					<dim>212</dim>
					<dim>1</dim>
					<dim>1</dim>
				</port>
			</output>
		</layer>
		<layer id="319" name="Conv_299/WithoutBiases" type="Convolution" version="opset1">
			<data strides="1, 1" dilations="1, 1" pads_begin="0, 0" pads_end="0, 0" auto_pad="explicit"/>
			<input>
				<port id="0" precision="FP16">
					<dim>1</dim>
					<dim>212</dim>
					<dim>15</dim>
					<dim>15</dim>
				</port>
				<port id="1" precision="FP16">
					<dim>212</dim>
					<dim>212</dim>
					<dim>1</dim>
					<dim>1</dim>
				</port>
			</input>
			<output>
				<port id="2" precision="FP16">
					<dim>1</dim>
					<dim>212</dim>
					<dim>15</dim>
					<dim>15</dim>
				</port>
			</output>
		</layer>
		<layer id="320" name="Conv_299/Dims9333" type="Const" version="opset1">
			<data element_type="f16" shape="1, 212, 1, 1" offset="1074024" size="424"/>
			<output>
				<port id="0" precision="FP16">
					<dim>1</dim>
					<dim>212</dim>
					<dim>1</dim>
					<dim>1</dim>
				</port>
			</output>
		</layer>
		<layer id="321" name="Conv_299" type="Add" version="opset1">
			<data auto_broadcast="numpy"/>
			<input>
				<port id="0" precision="FP16">
					<dim>1</dim>
					<dim>212</dim>
					<dim>15</dim>
					<dim>15</dim>
				</port>
				<port id="1" precision="FP16">
					<dim>1</dim>
					<dim>212</dim>
					<dim>1</dim>
					<dim>1</dim>
				</port>
			</input>
			<output>
				<port id="2" precision="FP16" names="onnx::Sigmoid_1360">
					<dim>1</dim>
					<dim>212</dim>
					<dim>15</dim>
					<dim>15</dim>
				</port>
			</output>
		</layer>
		<layer id="322" name="Mul_301" type="Swish" version="opset4">
			<input>
				<port id="0" precision="FP16">
					<dim>1</dim>
					<dim>212</dim>
					<dim>15</dim>
					<dim>15</dim>
				</port>
			</input>
			<output>
				<port id="1" precision="FP16" names="onnx::Concat_713">
					<dim>1</dim>
					<dim>212</dim>
					<dim>15</dim>
					<dim>15</dim>
				</port>
			</output>
		</layer>
		<layer id="323" name="Concat_302" type="Concat" version="opset1">
			<data axis="1"/>
			<input>
				<port id="0" precision="FP16">
					<dim>1</dim>
					<dim>212</dim>
					<dim>15</dim>
					<dim>15</dim>
				</port>
				<port id="1" precision="FP16">
					<dim>1</dim>
					<dim>212</dim>
					<dim>15</dim>
					<dim>15</dim>
				</port>
			</input>
			<output>
				<port id="2" precision="FP16" names="out.43">
					<dim>1</dim>
					<dim>424</dim>
					<dim>15</dim>
					<dim>15</dim>
				</port>
			</output>
		</layer>
		<layer id="324" name="Constant_303" type="Const" version="opset1">
			<data element_type="i64" shape="5" offset="1074448" size="40"/>
			<output>
				<port id="0" precision="I64" names="onnx::Reshape_715">
					<dim>5</dim>
				</port>
			</output>
		</layer>
		<layer id="325" name="Reshape_304" type="Reshape" version="opset1">
			<data special_zero="true"/>
			<input>
				<port id="0" precision="FP16">
					<dim>1</dim>
					<dim>424</dim>
					<dim>15</dim>
					<dim>15</dim>
				</port>
				<port id="1" precision="I64">
					<dim>5</dim>
				</port>
			</input>
			<output>
				<port id="2" precision="FP16" names="onnx::Transpose_716">
					<dim>1</dim>
					<dim>2</dim>
					<dim>212</dim>
					<dim>15</dim>
					<dim>15</dim>
				</port>
			</output>
		</layer>
		<layer id="326" name="941" type="Const" version="opset1">
			<data element_type="i64" shape="5" offset="377464" size="40"/>
			<output>
				<port id="0" precision="I64">
					<dim>5</dim>
				</port>
			</output>
		</layer>
		<layer id="327" name="Transpose_305" type="Transpose" version="opset1">
			<input>
				<port id="0" precision="FP16">
					<dim>1</dim>
					<dim>2</dim>
					<dim>212</dim>
					<dim>15</dim>
					<dim>15</dim>
				</port>
				<port id="1" precision="I64">
					<dim>5</dim>
				</port>
			</input>
			<output>
				<port id="2" precision="FP16" names="onnx::Reshape_717">
					<dim>1</dim>
					<dim>212</dim>
					<dim>2</dim>
					<dim>15</dim>
					<dim>15</dim>
				</port>
			</output>
		</layer>
		<layer id="328" name="Constant_306" type="Const" version="opset1">
			<data element_type="i64" shape="4" offset="1074488" size="32"/>
			<output>
				<port id="0" precision="I64" names="onnx::Reshape_718">
					<dim>4</dim>
				</port>
			</output>
		</layer>
		<layer id="329" name="Reshape_307" type="Reshape" version="opset1">
			<data special_zero="true"/>
			<input>
				<port id="0" precision="FP16">
					<dim>1</dim>
					<dim>212</dim>
					<dim>2</dim>
					<dim>15</dim>
					<dim>15</dim>
				</port>
				<port id="1" precision="I64">
					<dim>4</dim>
				</port>
			</input>
			<output>
				<port id="2" precision="FP16" names="onnx::Shape_719">
					<dim>1</dim>
					<dim>424</dim>
					<dim>15</dim>
					<dim>15</dim>
				</port>
			</output>
		</layer>
		<layer id="330" name="1383130887" type="Const" version="opset1">
			<data element_type="i64" shape="" offset="377536" size="8"/>
			<output>
				<port id="0" precision="I64"/>
			</output>
		</layer>
		<layer id="331" name="1383331040" type="Const" version="opset1">
			<data element_type="i64" shape="2" offset="1074520" size="16"/>
			<output>
				<port id="0" precision="I64">
					<dim>2</dim>
				</port>
			</output>
		</layer>
		<layer id="332" name="Slice_318/Split" type="VariadicSplit" version="opset1">
			<input>
				<port id="0" precision="FP16">
					<dim>1</dim>
					<dim>424</dim>
					<dim>15</dim>
					<dim>15</dim>
				</port>
				<port id="1" precision="I64"/>
				<port id="2" precision="I64">
					<dim>2</dim>
				</port>
			</input>
			<output>
				<port id="3" precision="FP16" names="onnx::Concat_730">
					<dim>1</dim>
					<dim>212</dim>
					<dim>15</dim>
					<dim>15</dim>
				</port>
				<port id="4" precision="FP16" names="onnx::Conv_733">
					<dim>1</dim>
					<dim>212</dim>
					<dim>15</dim>
					<dim>15</dim>
				</port>
			</output>
		</layer>
		<layer id="333" name="onnx::Conv_1364" type="Const" version="opset1">
			<data element_type="f16" shape="212, 212, 1, 1" offset="1074536" size="89888"/>
			<output>
				<port id="0" precision="FP16" names="onnx::Conv_1364">
					<dim>212</dim>
					<dim>212</dim>
					<dim>1</dim>
					<dim>1</dim>
				</port>
			</output>
		</layer>
		<layer id="334" name="Conv_322/WithoutBiases" type="Convolution" version="opset1">
			<data strides="1, 1" dilations="1, 1" pads_begin="0, 0" pads_end="0, 0" auto_pad="explicit"/>
			<input>
				<port id="0" precision="FP16">
					<dim>1</dim>
					<dim>212</dim>
					<dim>15</dim>
					<dim>15</dim>
				</port>
				<port id="1" precision="FP16">
					<dim>212</dim>
					<dim>212</dim>
					<dim>1</dim>
					<dim>1</dim>
				</port>
			</input>
			<output>
				<port id="2" precision="FP16">
					<dim>1</dim>
					<dim>212</dim>
					<dim>15</dim>
					<dim>15</dim>
				</port>
			</output>
		</layer>
		<layer id="335" name="Conv_322/Dims9321" type="Const" version="opset1">
			<data element_type="f16" shape="1, 212, 1, 1" offset="1164424" size="424"/>
			<output>
				<port id="0" precision="FP16">
					<dim>1</dim>
					<dim>212</dim>
					<dim>1</dim>
					<dim>1</dim>
				</port>
			</output>
		</layer>
		<layer id="336" name="Conv_322" type="Add" version="opset1">
			<data auto_broadcast="numpy"/>
			<input>
				<port id="0" precision="FP16">
					<dim>1</dim>
					<dim>212</dim>
					<dim>15</dim>
					<dim>15</dim>
				</port>
				<port id="1" precision="FP16">
					<dim>1</dim>
					<dim>212</dim>
					<dim>1</dim>
					<dim>1</dim>
				</port>
			</input>
			<output>
				<port id="2" precision="FP16" names="onnx::Sigmoid_1363">
					<dim>1</dim>
					<dim>212</dim>
					<dim>15</dim>
					<dim>15</dim>
				</port>
			</output>
		</layer>
		<layer id="337" name="Mul_324" type="Swish" version="opset4">
			<input>
				<port id="0" precision="FP16">
					<dim>1</dim>
					<dim>212</dim>
					<dim>15</dim>
					<dim>15</dim>
				</port>
			</input>
			<output>
				<port id="1" precision="FP16" names="input.304">
					<dim>1</dim>
					<dim>212</dim>
					<dim>15</dim>
					<dim>15</dim>
				</port>
			</output>
		</layer>
		<layer id="338" name="onnx::Conv_1367" type="Const" version="opset1">
			<data element_type="f16" shape="212, 1, 1, 3, 3" offset="1164848" size="3816"/>
			<output>
				<port id="0" precision="FP16" names="onnx::Conv_1367">
					<dim>212</dim>
					<dim>1</dim>
					<dim>1</dim>
					<dim>3</dim>
					<dim>3</dim>
				</port>
			</output>
		</layer>
		<layer id="339" name="Conv_325/WithoutBiases" type="GroupConvolution" version="opset1">
			<data strides="1, 1" pads_begin="1, 1" pads_end="1, 1" dilations="1, 1" auto_pad="explicit"/>
			<input>
				<port id="0" precision="FP16">
					<dim>1</dim>
					<dim>212</dim>
					<dim>15</dim>
					<dim>15</dim>
				</port>
				<port id="1" precision="FP16">
					<dim>212</dim>
					<dim>1</dim>
					<dim>1</dim>
					<dim>3</dim>
					<dim>3</dim>
				</port>
			</input>
			<output>
				<port id="2" precision="FP16">
					<dim>1</dim>
					<dim>212</dim>
					<dim>15</dim>
					<dim>15</dim>
				</port>
			</output>
		</layer>
		<layer id="340" name="Conv_325/Dims9189" type="Const" version="opset1">
			<data element_type="f16" shape="1, 212, 1, 1" offset="1168664" size="424"/>
			<output>
				<port id="0" precision="FP16">
					<dim>1</dim>
					<dim>212</dim>
					<dim>1</dim>
					<dim>1</dim>
				</port>
			</output>
		</layer>
		<layer id="341" name="Conv_325" type="Add" version="opset1">
			<data auto_broadcast="numpy"/>
			<input>
				<port id="0" precision="FP16">
					<dim>1</dim>
					<dim>212</dim>
					<dim>15</dim>
					<dim>15</dim>
				</port>
				<port id="1" precision="FP16">
					<dim>1</dim>
					<dim>212</dim>
					<dim>1</dim>
					<dim>1</dim>
				</port>
			</input>
			<output>
				<port id="2" precision="FP16" names="input.312">
					<dim>1</dim>
					<dim>212</dim>
					<dim>15</dim>
					<dim>15</dim>
				</port>
			</output>
		</layer>
		<layer id="342" name="onnx::Conv_1370" type="Const" version="opset1">
			<data element_type="f16" shape="212, 212, 1, 1" offset="1169088" size="89888"/>
			<output>
				<port id="0" precision="FP16" names="onnx::Conv_1370">
					<dim>212</dim>
					<dim>212</dim>
					<dim>1</dim>
					<dim>1</dim>
				</port>
			</output>
		</layer>
		<layer id="343" name="Conv_326/WithoutBiases" type="Convolution" version="opset1">
			<data strides="1, 1" dilations="1, 1" pads_begin="0, 0" pads_end="0, 0" auto_pad="explicit"/>
			<input>
				<port id="0" precision="FP16">
					<dim>1</dim>
					<dim>212</dim>
					<dim>15</dim>
					<dim>15</dim>
				</port>
				<port id="1" precision="FP16">
					<dim>212</dim>
					<dim>212</dim>
					<dim>1</dim>
					<dim>1</dim>
				</port>
			</input>
			<output>
				<port id="2" precision="FP16">
					<dim>1</dim>
					<dim>212</dim>
					<dim>15</dim>
					<dim>15</dim>
				</port>
			</output>
		</layer>
		<layer id="344" name="Conv_326/Dims9501" type="Const" version="opset1">
			<data element_type="f16" shape="1, 212, 1, 1" offset="1258976" size="424"/>
			<output>
				<port id="0" precision="FP16">
					<dim>1</dim>
					<dim>212</dim>
					<dim>1</dim>
					<dim>1</dim>
				</port>
			</output>
		</layer>
		<layer id="345" name="Conv_326" type="Add" version="opset1">
			<data auto_broadcast="numpy"/>
			<input>
				<port id="0" precision="FP16">
					<dim>1</dim>
					<dim>212</dim>
					<dim>15</dim>
					<dim>15</dim>
				</port>
				<port id="1" precision="FP16">
					<dim>1</dim>
					<dim>212</dim>
					<dim>1</dim>
					<dim>1</dim>
				</port>
			</input>
			<output>
				<port id="2" precision="FP16" names="onnx::Sigmoid_1369">
					<dim>1</dim>
					<dim>212</dim>
					<dim>15</dim>
					<dim>15</dim>
				</port>
			</output>
		</layer>
		<layer id="346" name="Mul_328" type="Swish" version="opset4">
			<input>
				<port id="0" precision="FP16">
					<dim>1</dim>
					<dim>212</dim>
					<dim>15</dim>
					<dim>15</dim>
				</port>
			</input>
			<output>
				<port id="1" precision="FP16" names="onnx::Concat_743">
					<dim>1</dim>
					<dim>212</dim>
					<dim>15</dim>
					<dim>15</dim>
				</port>
			</output>
		</layer>
		<layer id="347" name="Concat_329" type="Concat" version="opset1">
			<data axis="1"/>
			<input>
				<port id="0" precision="FP16">
					<dim>1</dim>
					<dim>212</dim>
					<dim>15</dim>
					<dim>15</dim>
				</port>
				<port id="1" precision="FP16">
					<dim>1</dim>
					<dim>212</dim>
					<dim>15</dim>
					<dim>15</dim>
				</port>
			</input>
			<output>
				<port id="2" precision="FP16" names="out.47">
					<dim>1</dim>
					<dim>424</dim>
					<dim>15</dim>
					<dim>15</dim>
				</port>
			</output>
		</layer>
		<layer id="348" name="Constant_330" type="Const" version="opset1">
			<data element_type="i64" shape="5" offset="1074448" size="40"/>
			<output>
				<port id="0" precision="I64" names="onnx::Reshape_745">
					<dim>5</dim>
				</port>
			</output>
		</layer>
		<layer id="349" name="Reshape_331" type="Reshape" version="opset1">
			<data special_zero="true"/>
			<input>
				<port id="0" precision="FP16">
					<dim>1</dim>
					<dim>424</dim>
					<dim>15</dim>
					<dim>15</dim>
				</port>
				<port id="1" precision="I64">
					<dim>5</dim>
				</port>
			</input>
			<output>
				<port id="2" precision="FP16" names="onnx::Transpose_746">
					<dim>1</dim>
					<dim>2</dim>
					<dim>212</dim>
					<dim>15</dim>
					<dim>15</dim>
				</port>
			</output>
		</layer>
		<layer id="350" name="947" type="Const" version="opset1">
			<data element_type="i64" shape="5" offset="377464" size="40"/>
			<output>
				<port id="0" precision="I64">
					<dim>5</dim>
				</port>
			</output>
		</layer>
		<layer id="351" name="Transpose_332" type="Transpose" version="opset1">
			<input>
				<port id="0" precision="FP16">
					<dim>1</dim>
					<dim>2</dim>
					<dim>212</dim>
					<dim>15</dim>
					<dim>15</dim>
				</port>
				<port id="1" precision="I64">
					<dim>5</dim>
				</port>
			</input>
			<output>
				<port id="2" precision="FP16" names="onnx::Reshape_747">
					<dim>1</dim>
					<dim>212</dim>
					<dim>2</dim>
					<dim>15</dim>
					<dim>15</dim>
				</port>
			</output>
		</layer>
		<layer id="352" name="Constant_333" type="Const" version="opset1">
…
		<edge from-layer="62" from-port="0" to-layer="63" to-port="1"/>
		<edge from-layer="63" from-port="2" to-layer="65" to-port="0"/>
		<edge from-layer="64" from-port="0" to-layer="65" to-port="1"/>
		<edge from-layer="65" from-port="2" to-layer="67" to-port="0"/>
		<edge from-layer="66" from-port="0" to-layer="67" to-port="1"/>
		<edge from-layer="67" from-port="2" to-layer="69" to-port="0"/>
		<edge from-layer="68" from-port="0" to-layer="69" to-port="1"/>
		<edge from-layer="69" from-port="2" to-layer="70" to-port="0"/>
		<edge from-layer="70" from-port="1" to-layer="71" to-port="1"/>
		<edge from-layer="71" from-port="2" to-layer="73" to-port="0"/>
		<edge from-layer="72" from-port="0" to-layer="73" to-port="1"/>
		<edge from-layer="73" from-port="2" to-layer="75" to-port="0"/>
		<edge from-layer="74" from-port="0" to-layer="75" to-port="1"/>
		<edge from-layer="75" from-port="2" to-layer="77" to-port="0"/>
		<edge from-layer="76" from-port="0" to-layer="77" to-port="1"/>
		<edge from-layer="77" from-port="2" to-layer="80" to-port="0"/>
		<edge from-layer="78" from-port="0" to-layer="80" to-port="1"/>
		<edge from-layer="79" from-port="0" to-layer="80" to-port="2"/>
		<edge from-layer="80" from-port="4" to-layer="82" to-port="0"/>
		<edge from-layer="80" from-port="3" to-layer="95" to-port="0"/>
		<edge from-layer="81" from-port="0" to-layer="82" to-port="1"/>
		<edge from-layer="82" from-port="2" to-layer="84" to-port="0"/>
		<edge from-layer="83" from-port="0" to-layer="84" to-port="1"/>
		<edge from-layer="84" from-port="2" to-layer="85" to-port="0"/>
		<edge from-layer="85" from-port="1" to-layer="87" to-port="0"/>
		<edge from-layer="86" from-port="0" to-layer="87" to-port="1"/>
		<edge from-layer="87" from-port="2" to-layer="89" to-port="0"/>
		<edge from-layer="88" from-port="0" to-layer="89" to-port="1"/>
		<edge from-layer="89" from-port="2" to-layer="91" to-port="0"/>
		<edge from-layer="90" from-port="0" to-layer="91" to-port="1"/>
		<edge from-layer="91" from-port="2" to-layer="93" to-port="0"/>
		<edge from-layer="92" from-port="0" to-layer="93" to-port="1"/>
		<edge from-layer="93" from-port="2" to-layer="94" to-port="0"/>
		<edge from-layer="94" from-port="1" to-layer="95" to-port="1"/>
		<edge from-layer="95" from-port="2" to-layer="97" to-port="0"/>
		<edge from-layer="96" from-port="0" to-layer="97" to-port="1"/>
		<edge from-layer="97" from-port="2" to-layer="99" to-port="0"/>
		<edge from-layer="98" from-port="0" to-layer="99" to-port="1"/>
		<edge from-layer="99" from-port="2" to-layer="101" to-port="0"/>
		<edge from-layer="100" from-port="0" to-layer="101" to-port="1"/>
		<edge from-layer="101" from-port="2" to-layer="104" to-port="0"/>
		<edge from-layer="102" from-port="0" to-layer="104" to-port="1"/>
		<edge from-layer="103" from-port="0" to-layer="104" to-port="2"/>
		<edge from-layer="104" from-port="4" to-layer="106" to-port="0"/>
		<edge from-layer="104" from-port="3" to-layer="119" to-port="0"/>
		<edge from-layer="105" from-port="0" to-layer="106" to-port="1"/>
		<edge from-layer="106" from-port="2" to-layer="108" to-port="0"/>
		<edge from-layer="107" from-port="0" to-layer="108" to-port="1"/>
		<edge from-layer="108" from-port="2" to-layer="109" to-port="0"/>
		<edge from-layer="109" from-port="1" to-layer="111" to-port="0"/>
		<edge from-layer="110" from-port="0" to-layer="111" to-port="1"/>
		<edge from-layer="111" from-port="2" to-layer="113" to-port="0"/>
		<edge from-layer="112" from-port="0" to-layer="113" to-port="1"/>
		<edge from-layer="113" from-port="2" to-layer="115" to-port="0"/>
		<edge from-layer="114" from-port="0" to-layer="115" to-port="1"/>
		<edge from-layer="115" from-port="2" to-layer="117" to-port="0"/>
		<edge from-layer="116" from-port="0" to-layer="117" to-port="1"/>
		<edge from-layer="117" from-port="2" to-layer="118" to-port="0"/>
		<edge from-layer="118" from-port="1" to-layer="119" to-port="1"/>
		<edge from-layer="119" from-port="2" to-layer="121" to-port="0"/>
		<edge from-layer="120" from-port="0" to-layer="121" to-port="1"/>
		<edge from-layer="121" from-port="2" to-layer="123" to-port="0"/>
		<edge from-layer="122" from-port="0" to-layer="123" to-port="1"/>
		<edge from-layer="123" from-port="2" to-layer="125" to-port="0"/>
		<edge from-layer="124" from-port="0" to-layer="125" to-port="1"/>
		<edge from-layer="125" from-port="2" to-layer="136" to-port="0"/>
		<edge from-layer="125" from-port="2" to-layer="127" to-port="0"/>
		<edge from-layer="125" from-port="2" to-layer="469" to-port="1"/>
		<edge from-layer="126" from-port="0" to-layer="127" to-port="1"/>
		<edge from-layer="127" from-port="2" to-layer="129" to-port="0"/>
		<edge from-layer="128" from-port="0" to-layer="129" to-port="1"/>
		<edge from-layer="129" from-port="2" to-layer="131" to-port="0"/>
		<edge from-layer="130" from-port="0" to-layer="131" to-port="1"/>
		<edge from-layer="131" from-port="2" to-layer="133" to-port="0"/>
		<edge from-layer="132" from-port="0" to-layer="133" to-port="1"/>
		<edge from-layer="133" from-port="2" to-layer="134" to-port="0"/>
		<edge from-layer="134" from-port="1" to-layer="149" to-port="0"/>
		<edge from-layer="135" from-port="0" to-layer="136" to-port="1"/>
		<edge from-layer="136" from-port="2" to-layer="138" to-port="0"/>
		<edge from-layer="137" from-port="0" to-layer="138" to-port="1"/>
		<edge from-layer="138" from-port="2" to-layer="139" to-port="0"/>
		<edge from-layer="139" from-port="1" to-layer="141" to-port="0"/>
		<edge from-layer="140" from-port="0" to-layer="141" to-port="1"/>
		<edge from-layer="141" from-port="2" to-layer="143" to-port="0"/>
		<edge from-layer="142" from-port="0" to-layer="143" to-port="1"/>
		<edge from-layer="143" from-port="2" to-layer="145" to-port="0"/>
		<edge from-layer="144" from-port="0" to-layer="145" to-port="1"/>
		<edge from-layer="145" from-port="2" to-layer="147" to-port="0"/>
		<edge from-layer="146" from-port="0" to-layer="147" to-port="1"/>
		<edge from-layer="147" from-port="2" to-layer="148" to-port="0"/>
		<edge from-layer="148" from-port="1" to-layer="149" to-port="1"/>
		<edge from-layer="149" from-port="2" to-layer="151" to-port="0"/>
		<edge from-layer="150" from-port="0" to-layer="151" to-port="1"/>
		<edge from-layer="151" from-port="2" to-layer="153" to-port="0"/>
		<edge from-layer="152" from-port="0" to-layer="153" to-port="1"/>
		<edge from-layer="153" from-port="2" to-layer="155" to-port="0"/>
		<edge from-layer="154" from-port="0" to-layer="155" to-port="1"/>
		<edge from-layer="155" from-port="2" to-layer="158" to-port="0"/>
		<edge from-layer="156" from-port="0" to-layer="158" to-port="1"/>
		<edge from-layer="157" from-port="0" to-layer="158" to-port="2"/>
		<edge from-layer="158" from-port="4" to-layer="160" to-port="0"/>
		<edge from-layer="158" from-port="3" to-layer="173" to-port="0"/>
		<edge from-layer="159" from-port="0" to-layer="160" to-port="1"/>
		<edge from-layer="160" from-port="2" to-layer="162" to-port="0"/>
		<edge from-layer="161" from-port="0" to-layer="162" to-port="1"/>
		<edge from-layer="162" from-port="2" to-layer="163" to-port="0"/>
		<edge from-layer="163" from-port="1" to-layer="165" to-port="0"/>
		<edge from-layer="164" from-port="0" to-layer="165" to-port="1"/>
		<edge from-layer="165" from-port="2" to-layer="167" to-port="0"/>
		<edge from-layer="166" from-port="0" to-layer="167" to-port="1"/>
		<edge from-layer="167" from-port="2" to-layer="169" to-port="0"/>
		<edge from-layer="168" from-port="0" to-layer="169" to-port="1"/>
		<edge from-layer="169" from-port="2" to-layer="171" to-port="0"/>
		<edge from-layer="170" from-port="0" to-layer="171" to-port="1"/>
		<edge from-layer="171" from-port="2" to-layer="172" to-port="0"/>
		<edge from-layer="172" from-port="1" to-layer="173" to-port="1"/>
		<edge from-layer="173" from-port="2" to-layer="175" to-port="0"/>
		<edge from-layer="174" from-port="0" to-layer="175" to-port="1"/>
		<edge from-layer="175" from-port="2" to-layer="177" to-port="0"/>
		<edge from-layer="176" from-port="0" to-layer="177" to-port="1"/>
		<edge from-layer="177" from-port="2" to-layer="179" to-port="0"/>
		<edge from-layer="178" from-port="0" to-layer="179" to-port="1"/>
		<edge from-layer="179" from-port="2" to-layer="182" to-port="0"/>
		<edge from-layer="180" from-port="0" to-layer="182" to-port="1"/>
		<edge from-layer="181" from-port="0" to-layer="182" to-port="2"/>
		<edge from-layer="182" from-port="3" to-layer="197" to-port="0"/>
		<edge from-layer="182" from-port="4" to-layer="184" to-port="0"/>
		<edge from-layer="183" from-port="0" to-layer="184" to-port="1"/>
		<edge from-layer="184" from-port="2" to-layer="186" to-port="0"/>
		<edge from-layer="185" from-port="0" to-layer="186" to-port="1"/>
		<edge from-layer="186" from-port="2" to-layer="187" to-port="0"/>
		<edge from-layer="187" from-port="1" to-layer="189" to-port="0"/>
		<edge from-layer="188" from-port="0" to-layer="189" to-port="1"/>
		<edge from-layer="189" from-port="2" to-layer="191" to-port="0"/>
		<edge from-layer="190" from-port="0" to-layer="191" to-port="1"/>
		<edge from-layer="191" from-port="2" to-layer="193" to-port="0"/>
		<edge from-layer="192" from-port="0" to-layer="193" to-port="1"/>
		<edge from-layer="193" from-port="2" to-layer="195" to-port="0"/>
		<edge from-layer="194" from-port="0" to-layer="195" to-port="1"/>
		<edge from-layer="195" from-port="2" to-layer="196" to-port="0"/>
		<edge from-layer="196" from-port="1" to-layer="197" to-port="1"/>
		<edge from-layer="197" from-port="2" to-layer="199" to-port="0"/>
		<edge from-layer="198" from-port="0" to-layer="199" to-port="1"/>
		<edge from-layer="199" from-port="2" to-layer="201" to-port="0"/>
		<edge from-layer="200" from-port="0" to-layer="201" to-port="1"/>
		<edge from-layer="201" from-port="2" to-layer="203" to-port="0"/>
		<edge from-layer="202" from-port="0" to-layer="203" to-port="1"/>
		<edge from-layer="203" from-port="2" to-layer="206" to-port="0"/>
		<edge from-layer="204" from-port="0" to-layer="206" to-port="1"/>
		<edge from-layer="205" from-port="0" to-layer="206" to-port="2"/>
		<edge from-layer="206" from-port="3" to-layer="221" to-port="0"/>
		<edge from-layer="206" from-port="4" to-layer="208" to-port="0"/>
		<edge from-layer="207" from-port="0" to-layer="208" to-port="1"/>
		<edge from-layer="208" from-port="2" to-layer="210" to-port="0"/>
		<edge from-layer="209" from-port="0" to-layer="210" to-port="1"/>
		<edge from-layer="210" from-port="2" to-layer="211" to-port="0"/>
		<edge from-layer="211" from-port="1" to-layer="213" to-port="0"/>
		<edge from-layer="212" from-port="0" to-layer="213" to-port="1"/>
		<edge from-layer="213" from-port="2" to-layer="215" to-port="0"/>
		<edge from-layer="214" from-port="0" to-layer="215" to-port="1"/>
		<edge from-layer="215" from-port="2" to-layer="217" to-port="0"/>
		<edge from-layer="216" from-port="0" to-layer="217" to-port="1"/>
		<edge from-layer="217" from-port="2" to-layer="219" to-port="0"/>
		<edge from-layer="218" from-port="0" to-layer="219" to-port="1"/>
		<edge from-layer="219" from-port="2" to-layer="220" to-port="0"/>
		<edge from-layer="220" from-port="1" to-layer="221" to-port="1"/>
		<edge from-layer="221" from-port="2" to-layer="223" to-port="0"/>
		<edge from-layer="222" from-port="0" to-layer="223" to-port="1"/>
		<edge from-layer="223" from-port="2" to-layer="225" to-port="0"/>
		<edge from-layer="224" from-port="0" to-layer="225" to-port="1"/>
		<edge from-layer="225" from-port="2" to-layer="227" to-port="0"/>
		<edge from-layer="226" from-port="0" to-layer="227" to-port="1"/>
		<edge from-layer="227" from-port="2" to-layer="230" to-port="0"/>
		<edge from-layer="228" from-port="0" to-layer="230" to-port="1"/>
		<edge from-layer="229" from-port="0" to-layer="230" to-port="2"/>
		<edge from-layer="230" from-port="3" to-layer="245" to-port="0"/>
		<edge from-layer="230" from-port="4" to-layer="232" to-port="0"/>
		<edge from-layer="231" from-port="0" to-layer="232" to-port="1"/>
		<edge from-layer="232" from-port="2" to-layer="234" to-port="0"/>
		<edge from-layer="233" from-port="0" to-layer="234" to-port="1"/>
		<edge from-layer="234" from-port="2" to-layer="235" to-port="0"/>
		<edge from-layer="235" from-port="1" to-layer="237" to-port="0"/>
		<edge from-layer="236" from-port="0" to-layer="237" to-port="1"/>
		<edge from-layer="237" from-port="2" to-layer="239" to-port="0"/>
		<edge from-layer="238" from-port="0" to-layer="239" to-port="1"/>
		<edge from-layer="239" from-port="2" to-layer="241" to-port="0"/>
		<edge from-layer="240" from-port="0" to-layer="241" to-port="1"/>
		<edge from-layer="241" from-port="2" to-layer="243" to-port="0"/>
		<edge from-layer="242" from-port="0" to-layer="243" to-port="1"/>
		<edge from-layer="243" from-port="2" to-layer="244" to-port="0"/>
		<edge from-layer="244" from-port="1" to-layer="245" to-port="1"/>
		<edge from-layer="245" from-port="2" to-layer="247" to-port="0"/>
		<edge from-layer="246" from-port="0" to-layer="247" to-port="1"/>
		<edge from-layer="247" from-port="2" to-layer="249" to-port="0"/>
		<edge from-layer="248" from-port="0" to-layer="249" to-port="1"/>
		<edge from-layer="249" from-port="2" to-layer="251" to-port="0"/>
		<edge from-layer="250" from-port="0" to-layer="251" to-port="1"/>
		<edge from-layer="251" from-port="2" to-layer="254" to-port="0"/>
		<edge from-layer="252" from-port="0" to-layer="254" to-port="1"/>
		<edge from-layer="253" from-port="0" to-layer="254" to-port="2"/>
		<edge from-layer="254" from-port="3" to-layer="269" to-port="0"/>
		<edge from-layer="254" from-port="4" to-layer="256" to-port="0"/>
		<edge from-layer="255" from-port="0" to-layer="256" to-port="1"/>
		<edge from-layer="256" from-port="2" to-layer="258" to-port="0"/>
		<edge from-layer="257" from-port="0" to-layer="258" to-port="1"/>
		<edge from-layer="258" from-port="2" to-layer="259" to-port="0"/>
		<edge from-layer="259" from-port="1" to-layer="261" to-port="0"/>
		<edge from-layer="260" from-port="0" to-layer="261" to-port="1"/>
		<edge from-layer="261" from-port="2" to-layer="263" to-port="0"/>
		<edge from-layer="262" from-port="0" to-layer="263" to-port="1"/>
		<edge from-layer="263" from-port="2" to-layer="265" to-port="0"/>
		<edge from-layer="264" from-port="0" to-layer="265" to-port="1"/>
		<edge from-layer="265" from-port="2" to-layer="267" to-port="0"/>
		<edge from-layer="266" from-port="0" to-layer="267" to-port="1"/>
		<edge from-layer="267" from-port="2" to-layer="268" to-port="0"/>
		<edge from-layer="268" from-port="1" to-layer="269" to-port="1"/>
		<edge from-layer="269" from-port="2" to-layer="271" to-port="0"/>
		<edge from-layer="270" from-port="0" to-layer="271" to-port="1"/>
		<edge from-layer="271" from-port="2" to-layer="273" to-port="0"/>
		<edge from-layer="272" from-port="0" to-layer="273" to-port="1"/>
		<edge from-layer="273" from-port="2" to-layer="275" to-port="0"/>
		<edge from-layer="274" from-port="0" to-layer="275" to-port="1"/>
		<edge from-layer="275" from-port="2" to-layer="278" to-port="0"/>
		<edge from-layer="276" from-port="0" to-layer="278" to-port="1"/>
		<edge from-layer="277" from-port="0" to-layer="278" to-port="2"/>
		<edge from-layer="278" from-port="4" to-layer="280" to-port="0"/>
		<edge from-layer="278" from-port="3" to-layer="293" to-port="0"/>
		<edge from-layer="279" from-port="0" to-layer="280" to-port="1"/>
		<edge from-layer="280" from-port="2" to-layer="282" to-port="0"/>
		<edge from-layer="281" from-port="0" to-layer="282" to-port="1"/>
		<edge from-layer="282" from-port="2" to-layer="283" to-port="0"/>
		<edge from-layer="283" from-port="1" to-layer="285" to-port="0"/>
		<edge from-layer="284" from-port="0" to-layer="285" to-port="1"/>
		<edge from-layer="285" from-port="2" to-layer="287" to-port="0"/>
		<edge from-layer="286" from-port="0" to-layer="287" to-port="1"/>
		<edge from-layer="287" from-port="2" to-layer="289" to-port="0"/>
		<edge from-layer="288" from-port="0" to-layer="289" to-port="1"/>
		<edge from-layer="289" from-port="2" to-layer="291" to-port="0"/>
		<edge from-layer="290" from-port="0" to-layer="291" to-port="1"/>
		<edge from-layer="291" from-port="2" to-layer="292" to-port="0"/>
		<edge from-layer="292" from-port="1" to-layer="293" to-port="1"/>
		<edge from-layer="293" from-port="2" to-layer="295" to-port="0"/>
		<edge from-layer="294" from-port="0" to-layer="295" to-port="1"/>
		<edge from-layer="295" from-port="2" to-layer="297" to-port="0"/>
		<edge from-layer="296" from-port="0" to-layer="297" to-port="1"/>
		<edge from-layer="297" from-port="2" to-layer="299" to-port="0"/>
		<edge from-layer="298" from-port="0" to-layer="299" to-port="1"/>
		<edge from-layer="299" from-port="2" to-layer="422" to-port="1"/>
		<edge from-layer="299" from-port="2" to-layer="310" to-port="0"/>
		<edge from-layer="299" from-port="2" to-layer="301" to-port="0"/>
		<edge from-layer="300" from-port="0" to-layer="301" to-port="1"/>
		<edge from-layer="301" from-port="2" to-layer="303" to-port="0"/>
		<edge from-layer="302" from-port="0" to-layer="303" to-port="1"/>
		<edge from-layer="303" from-port="2" to-layer="305" to-port="0"/>
		<edge from-layer="304" from-port="0" to-layer="305" to-port="1"/>
		<edge from-layer="305" from-port="2" to-layer="307" to-port="0"/>
		<edge from-layer="306" from-port="0" to-layer="307" to-port="1"/>
		<edge from-layer="307" from-port="2" to-layer="308" to-port="0"/>
		<edge from-layer="308" from-port="1" to-layer="323" to-port="0"/>
		<edge from-layer="309" from-port="0" to-layer="310" to-port="1"/>
		<edge from-layer="310" from-port="2" to-layer="312" to-port="0"/>
		<edge from-layer="311" from-port="0" to-layer="312" to-port="1"/>
		<edge from-layer="312" from-port="2" to-layer="313" to-port="0"/>
		<edge from-layer="313" from-port="1" to-layer="315" to-port="0"/>
		<edge from-layer="314" from-port="0" to-layer="315" to-port="1"/>
		<edge from-layer="315" from-port="2" to-layer="317" to-port="0"/>
		<edge from-layer="316" from-port="0" to-layer="317" to-port="1"/>
		<edge from-layer="317" from-port="2" to-layer="319" to-port="0"/>
		<edge from-layer="318" from-port="0" to-layer="319" to-port="1"/>
		<edge from-layer="319" from-port="2" to-layer="321" to-port="0"/>
		<edge from-layer="320" from-port="0" to-layer="321" to-port="1"/>
		<edge from-layer="321" from-port="2" to-layer="322" to-port="0"/>
		<edge from-layer="322" from-port="1" to-layer="323" to-port="1"/>
		<edge from-layer="323" from-port="2" to-layer="325" to-port="0"/>
		<edge from-layer="324" from-port="0" to-layer="325" to-port="1"/>
		<edge from-layer="325" from-port="2" to-layer="327" to-port="0"/>
		<edge from-layer="326" from-port="0" to-layer="327" to-port="1"/>
		<edge from-layer="327" from-port="2" to-layer="329" to-port="0"/>
		<edge from-layer="328" from-port="0" to-layer="329" to-port="1"/>
		<edge from-layer="329" from-port="2" to-layer="332" to-port="0"/>
		<edge from-layer="330" from-port="0" to-layer="332" to-port="1"/>
		<edge from-layer="331" from-port="0" to-layer="332" to-port="2"/>
		<edge from-layer="332" from-port="4" to-layer="334" to-port="0"/>
		<edge from-layer="332" from-port="3" to-layer="347" to-port="0"/>
		<edge from-layer="333" from-port="0" to-layer="334" to-port="1"/>
		<edge from-layer="334" from-port="2" to-layer="336" to-port="0"/>
		<edge from-layer="335" from-port="0" to-layer="336" to-port="1"/>
		<edge from-layer="336" from-port="2" to-layer="337" to-port="0"/>
		<edge from-layer="337" from-port="1" to-layer="339" to-port="0"/>
		<edge from-layer="338" from-port="0" to-layer="339" to-port="1"/>
		<edge from-layer="339" from-port="2" to-layer="341" to-port="0"/>
		<edge from-layer="340" from-port="0" to-layer="341" to-port="1"/>
		<edge from-layer="341" from-port="2" to-layer="343" to-port="0"/>
		<edge from-layer="342" from-port="0" to-layer="343" to-port="1"/>
		<edge from-layer="343" from-port="2" to-layer="345" to-port="0"/>
		<edge from-layer="344" from-port="0" to-layer="345" to-port="1"/>
		<edge from-layer="345" from-port="2" to-layer="346" to-port="0"/>
		<edge from-layer="346" from-port="1" to-layer="347" to-port="1"/>
		<edge from-layer="347" from-port="2" to-layer="349" to-port="0"/>
		<edge from-layer="348" from-port="0" to-layer="349" to-port="1"/>
		<edge from-layer="349" from-port="2" to-layer="351" to-port="0"/>
		<edge from-layer="350" from-port="0" to-layer="351" to-port="1"/>
		<edge from-layer="351" from-port="2" to-layer="353" to-port="0"/>
		<edge from-layer="352" from-port="0" to-layer="353" to-port="1"/>
		<edge from-layer="353" from-port="2" to-layer="356" to-port="0"/>
		<edge from-layer="354" from-port="0" to-layer="356" to-port="1"/>
		<edge from-layer="355" from-port="0" to-layer="356" to-port="2"/>
		<edge from-layer="356" from-port="4" to-layer="358" to-port="0"/>
		<edge from-layer="356" from-port="3" to-layer="371" to-port="0"/>
		<edge from-layer="357" from-port="0" to-layer="358" to-port="1"/>
		<edge from-layer="358" from-port="2" to-layer="360" to-port="0"/>
		<edge from-layer="359" from-port="0" to-layer="360" to-port="1"/>
		<edge from-layer="360" from-port="2" to-layer="361" to-port="0"/>
		<edge from-layer="361" from-port="1" to-layer="363" to-port="0"/>
		<edge from-layer="362" from-port="0" to-layer="363" to-port="1"/>
		<edge from-layer="363" from-port="2" to-layer="365" to-port="0"/>
		<edge from-layer="364" from-port="0" to-layer="365" to-port="1"/>
		<edge from-layer="365" from-port="2" to-layer="367" to-port="0"/>
		<edge from-layer="366" from-port="0" to-layer="367" to-port="1"/>
		<edge from-layer="367" from-port="2" to-layer="369" to-port="0"/>
		<edge from-layer="368" from-port="0" to-layer="369" to-port="1"/>
		<edge from-layer="369" from-port="2" to-layer="370" to-port="0"/>
		<edge from-layer="370" from-port="1" to-layer="371" to-port="1"/>
		<edge from-layer="371" from-port="2" to-layer="373" to-port="0"/>
		<edge from-layer="372" from-port="0" to-layer="373" to-port="1"/>
		<edge from-layer="373" from-port="2" to-layer="375" to-port="0"/>
		<edge from-layer="374" from-port="0" to-layer="375" to-port="1"/>
		<edge from-layer="375" from-port="2" to-layer="377" to-port="0"/>
		<edge from-layer="376" from-port="0" to-layer="377" to-port="1"/>
		<edge from-layer="377" from-port="2" to-layer="380" to-port="0"/>
		<edge from-layer="378" from-port="0" to-layer="380" to-port="1"/>
		<edge from-layer="379" from-port="0" to-layer="380" to-port="2"/>
		<edge from-layer="380" from-port="4" to-layer="382" to-port="0"/>
		<edge from-layer="380" from-port="3" to-layer="395" to-port="0"/>
		<edge from-layer="381" from-port="0" to-layer="382" to-port="1"/>
		<edge from-layer="382" from-port="2" to-layer="384" to-port="0"/>
		<edge from-layer="383" from-port="0" to-layer="384" to-port="1"/>
		<edge from-layer="384" from-port="2" to-layer="385" to-port="0"/>
		<edge from-layer="385" from-port="1" to-layer="387" to-port="0"/>
		<edge from-layer="386" from-port="0" to-layer="387" to-port="1"/>
		<edge from-layer="387" from-port="2" to-layer="389" to-port="0"/>
		<edge from-layer="388" from-port="0" to-layer="389" to-port="1"/>
		<edge from-layer="389" from-port="2" to-layer="391" to-port="0"/>
		<edge from-layer="390" from-port="0" to-layer="391" to-port="1"/>
		<edge from-layer="391" from-port="2" to-layer="393" to-port="0"/>
		<edge from-layer="392" from-port="0" to-layer="393" to-port="1"/>
		<edge from-layer="393" from-port="2" to-layer="394" to-port="0"/>
		<edge from-layer="394" from-port="1" to-layer="395" to-port="1"/>
		<edge from-layer="395" from-port="2" to-layer="397" to-port="0"/>
		<edge from-layer="396" from-port="0" to-layer="397" to-port="1"/>
		<edge from-layer="397" from-port="2" to-layer="399" to-port="0"/>
		<edge from-layer="398" from-port="0" to-layer="399" to-port="1"/>
		<edge from-layer="399" from-port="2" to-layer="401" to-port="0"/>
		<edge from-layer="400" from-port="0" to-layer="401" to-port="1"/>
		<edge from-layer="401" from-port="2" to-layer="403" to-port="0"/>
		<edge from-layer="402" from-port="0" to-layer="403" to-port="1"/>
		<edge from-layer="403" from-port="2" to-layer="405" to-port="0"/>
		<edge from-layer="404" from-port="0" to-layer="405" to-port="1"/>
		<edge from-layer="405" from-port="2" to-layer="406" to-port="0"/>
		<edge from-layer="406" from-port="1" to-layer="637" to-port="1"/>
		<edge from-layer="406" from-port="1" to-layer="407" to-port="0"/>
		<edge from-layer="406" from-port="1" to-layer="421" to-port="0"/>
		<edge from-layer="407" from-port="1" to-layer="408" to-port="0"/>
		<edge from-layer="408" from-port="1" to-layer="410" to-port="0"/>
		<edge from-layer="409" from-port="0" to-layer="410" to-port="1"/>
		<edge from-layer="410" from-port="2" to-layer="412" to-port="0"/>
		<edge from-layer="411" from-port="0" to-layer="412" to-port="1"/>
		<edge from-layer="412" from-port="2" to-layer="413" to-port="0"/>
		<edge from-layer="413" from-port="1" to-layer="414" to-port="0"/>
		<edge from-layer="414" from-port="1" to-layer="418" to-port="0"/>
		<edge from-layer="415" from-port="0" to-layer="418" to-port="1"/>
		<edge from-layer="416" from-port="0" to-layer="418" to-port="2"/>
		<edge from-layer="417" from-port="0" to-layer="418" to-port="3"/>
		<edge from-layer="418" from-port="4" to-layer="421" to-port="1"/>
		<edge from-layer="419" from-port="0" to-layer="421" to-port="2"/>
		<edge from-layer="420" from-port="0" to-layer="421" to-port="3"/>
		<edge from-layer="421" from-port="4" to-layer="422" to-port="0"/>
		<edge from-layer="422" from-port="2" to-layer="424" to-port="0"/>
		<edge from-layer="422" from-port="2" to-layer="439" to-port="0"/>
		<edge from-layer="423" from-port="0" to-layer="424" to-port="1"/>
		<edge from-layer="424" from-port="2" to-layer="426" to-port="0"/>
		<edge from-layer="425" from-port="0" to-layer="426" to-port="1"/>
		<edge from-layer="426" from-port="2" to-layer="427" to-port="0"/>
		<edge from-layer="427" from-port="1" to-layer="429" to-port="0"/>
		<edge from-layer="428" from-port="0" to-layer="429" to-port="1"/>
		<edge from-layer="429" from-port="2" to-layer="431" to-port="0"/>
		<edge from-layer="430" from-port="0" to-layer="431" to-port="1"/>
		<edge from-layer="431" from-port="2" to-layer="432" to-port="0"/>
		<edge from-layer="432" from-port="1" to-layer="434" to-port="0"/>
		<edge from-layer="433" from-port="0" to-layer="434" to-port="1"/>
		<edge from-layer="434" from-port="2" to-layer="436" to-port="0"/>
		<edge from-layer="435" from-port="0" to-layer="436" to-port="1"/>
		<edge from-layer="436" from-port="2" to-layer="437" to-port="0"/>
		<edge from-layer="437" from-port="1" to-layer="443" to-port="0"/>
		<edge from-layer="438" from-port="0" to-layer="439" to-port="1"/>
		<edge from-layer="439" from-port="2" to-layer="441" to-port="0"/>
		<edge from-layer="440" from-port="0" to-layer="441" to-port="1"/>
		<edge from-layer="441" from-port="2" to-layer="442" to-port="0"/>
		<edge from-layer="442" from-port="1" to-layer="443" to-port="1"/>
		<edge from-layer="443" from-port="2" to-layer="445" to-port="0"/>
		<edge from-layer="444" from-port="0" to-layer="445" to-port="1"/>
		<edge from-layer="445" from-port="2" to-layer="447" to-port="0"/>
		<edge from-layer="446" from-port="0" to-layer="447" to-port="1"/>
		<edge from-layer="447" from-port="2" to-layer="448" to-port="0"/>
		<edge from-layer="448" from-port="1" to-layer="450" to-port="0"/>
		<edge from-layer="449" from-port="0" to-layer="450" to-port="1"/>
		<edge from-layer="450" from-port="2" to-layer="452" to-port="0"/>
		<edge from-layer="451" from-port="0" to-layer="452" to-port="1"/>
		<edge from-layer="452" from-port="2" to-layer="453" to-port="0"/>
		<edge from-layer="453" from-port="1" to-layer="454" to-port="0"/>
		<edge from-layer="453" from-port="1" to-layer="553" to-port="1"/>
		<edge from-layer="453" from-port="1" to-layer="468" to-port="0"/>
		<edge from-layer="454" from-port="1" to-layer="455" to-port="0"/>
		<edge from-layer="455" from-port="1" to-layer="457" to-port="0"/>
		<edge from-layer="456" from-port="0" to-layer="457" to-port="1"/>
		<edge from-layer="457" from-port="2" to-layer="459" to-port="0"/>
		<edge from-layer="458" from-port="0" to-layer="459" to-port="1"/>
		<edge from-layer="459" from-port="2" to-layer="460" to-port="0"/>
		<edge from-layer="460" from-port="1" to-layer="461" to-port="0"/>
		<edge from-layer="461" from-port="1" to-layer="465" to-port="0"/>
		<edge from-layer="462" from-port="0" to-layer="465" to-port="1"/>
		<edge from-layer="463" from-port="0" to-layer="465" to-port="2"/>
		<edge from-layer="464" from-port="0" to-layer="465" to-port="3"/>
		<edge from-layer="465" from-port="4" to-layer="468" to-port="1"/>
		<edge from-layer="466" from-port="0" to-layer="468" to-port="2"/>
		<edge from-layer="467" from-port="0" to-layer="468" to-port="3"/>
		<edge from-layer="468" from-port="4" to-layer="469" to-port="0"/>
		<edge from-layer="469" from-port="2" to-layer="471" to-port="0"/>
		<edge from-layer="469" from-port="2" to-layer="486" to-port="0"/>
		<edge from-layer="470" from-port="0" to-layer="471" to-port="1"/>
		<edge from-layer="471" from-port="2" to-layer="473" to-port="0"/>
		<edge from-layer="472" from-port="0" to-layer="473" to-port="1"/>
		<edge from-layer="473" from-port="2" to-layer="474" to-port="0"/>
		<edge from-layer="474" from-port="1" to-layer="476" to-port="0"/>
		<edge from-layer="475" from-port="0" to-layer="476" to-port="1"/>
		<edge from-layer="476" from-port="2" to-layer="478" to-port="0"/>
		<edge from-layer="477" from-port="0" to-layer="478" to-port="1"/>
		<edge from-layer="478" from-port="2" to-layer="479" to-port="0"/>
		<edge from-layer="479" from-port="1" to-layer="481" to-port="0"/>
		<edge from-layer="480" from-port="0" to-layer="481" to-port="1"/>
		<edge from-layer="481" from-port="2" to-layer="483" to-port="0"/>
		<edge from-layer="482" from-port="0" to-layer="483" to-port="1"/>
		<edge from-layer="483" from-port="2" to-layer="484" to-port="0"/>
		<edge from-layer="484" from-port="1" to-layer="490" to-port="0"/>
		<edge from-layer="485" from-port="0" to-layer="486" to-port="1"/>
		<edge from-layer="486" from-port="2" to-layer="488" to-port="0"/>
		<edge from-layer="487" from-port="0" to-layer="488" to-port="1"/>
		<edge from-layer="488" from-port="2" to-layer="489" to-port="0"/>
		<edge from-layer="489" from-port="1" to-layer="490" to-port="1"/>
		<edge from-layer="490" from-port="2" to-layer="492" to-port="0"/>
		<edge from-layer="491" from-port="0" to-layer="492" to-port="1"/>
		<edge from-layer="492" from-port="2" to-layer="494" to-port="0"/>
		<edge from-layer="493" from-port="0" to-layer="494" to-port="1"/>
		<edge from-layer="494" from-port="2" to-layer="495" to-port="0"/>
		<edge from-layer="495" from-port="1" to-layer="497" to-port="0"/>
		<edge from-layer="495" from-port="1" to-layer="549" to-port="0"/>
		<edge from-layer="496" from-port="0" to-layer="497" to-port="1"/>
		<edge from-layer="497" from-port="2" to-layer="499" to-port="0"/>
		<edge from-layer="498" from-port="0" to-layer="499" to-port="1"/>
		<edge from-layer="499" from-port="2" to-layer="501" to-port="0"/>
		<edge from-layer="500" from-port="0" to-layer="501" to-port="1"/>
		<edge from-layer="501" from-port="2" to-layer="503" to-port="0"/>
		<edge from-layer="502" from-port="0" to-layer="503" to-port="1"/>
		<edge from-layer="503" from-port="2" to-layer="506" to-port="0"/>
		<edge from-layer="504" from-port="0" to-layer="506" to-port="1"/>
		<edge from-layer="505" from-port="0" to-layer="506" to-port="2"/>
		<edge from-layer="506" from-port="3" to-layer="507" to-port="0"/>
		<edge from-layer="506" from-port="5" to-layer="508" to-port="0"/>
		<edge from-layer="506" from-port="4" to-layer="509" to-port="1"/>
		<edge from-layer="507" from-port="1" to-layer="509" to-port="0"/>
		<edge from-layer="508" from-port="1" to-layer="509" to-port="2"/>
		<edge from-layer="509" from-port="3" to-layer="510" to-port="1"/>
		<edge from-layer="510" from-port="2" to-layer="513" to-port="0"/>
		<edge from-layer="511" from-port="0" to-layer="513" to-port="1"/>
		<edge from-layer="512" from-port="0" to-layer="513" to-port="2"/>
		<edge from-layer="513" from-port="6" to-layer="529" to-port="0"/>
		<edge from-layer="513" from-port="7" to-layer="533" to-port="0"/>
		<edge from-layer="513" from-port="8" to-layer="537" to-port="0"/>
		<edge from-layer="513" from-port="4" to-layer="523" to-port="0"/>
		<edge from-layer="513" from-port="9" to-layer="541" to-port="0"/>
		<edge from-layer="513" from-port="5" to-layer="544" to-port="2"/>
		<edge from-layer="513" from-port="10" to-layer="544" to-port="7"/>
		<edge from-layer="513" from-port="3" to-layer="515" to-port="0"/>
		<edge from-layer="514" from-port="0" to-layer="515" to-port="1"/>
		<edge from-layer="515" from-port="2" to-layer="517" to-port="0"/>
		<edge from-layer="516" from-port="0" to-layer="517" to-port="1"/>
		<edge from-layer="517" from-port="2" to-layer="519" to-port="0"/>
		<edge from-layer="518" from-port="0" to-layer="519" to-port="1"/>
		<edge from-layer="519" from-port="2" to-layer="521" to-port="0"/>
		<edge from-layer="520" from-port="0" to-layer="521" to-port="1"/>
		<edge from-layer="521" from-port="2" to-layer="544" to-port="0"/>
		<edge from-layer="522" from-port="0" to-layer="523" to-port="1"/>
		<edge from-layer="523" from-port="2" to-layer="525" to-port="0"/>
		<edge from-layer="524" from-port="0" to-layer="525" to-port="1"/>
		<edge from-layer="525" from-port="2" to-layer="527" to-port="0"/>
		<edge from-layer="526" from-port="0" to-layer="527" to-port="1"/>
		<edge from-layer="527" from-port="2" to-layer="544" to-port="1"/>
		<edge from-layer="528" from-port="0" to-layer="529" to-port="1"/>
		<edge from-layer="529" from-port="2" to-layer="531" to-port="0"/>
		<edge from-layer="530" from-port="0" to-layer="531" to-port="1"/>
		<edge from-layer="531" from-port="2" to-layer="544" to-port="3"/>
		<edge from-layer="532" from-port="0" to-layer="533" to-port="1"/>
		<edge from-layer="533" from-port="2" to-layer="535" to-port="0"/>
		<edge from-layer="534" from-port="0" to-layer="535" to-port="1"/>
		<edge from-layer="535" from-port="2" to-layer="544" to-port="4"/>
		<edge from-layer="536" from-port="0" to-layer="537" to-port="1"/>
		<edge from-layer="537" from-port="2" to-layer="539" to-port="0"/>
		<edge from-layer="538" from-port="0" to-layer="539" to-port="1"/>
		<edge from-layer="539" from-port="2" to-layer="544" to-port="5"/>
		<edge from-layer="540" from-port="0" to-layer="541" to-port="1"/>
		<edge from-layer="541" from-port="2" to-layer="543" to-port="0"/>
		<edge from-layer="542" from-port="0" to-layer="543" to-port="1"/>
		<edge from-layer="543" from-port="2" to-layer="544" to-port="6"/>
		<edge from-layer="544" from-port="8" to-layer="546" to-port="0"/>
		<edge from-layer="545" from-port="0" to-layer="546" to-port="1"/>
		<edge from-layer="546" from-port="2" to-layer="715" to-port="0"/>
		<edge from-layer="547" from-port="0" to-layer="594" to-port="0"/>
		<edge from-layer="548" from-port="0" to-layer="549" to-port="1"/>
		<edge from-layer="549" from-port="2" to-layer="551" to-port="0"/>
		<edge from-layer="550" from-port="0" to-layer="551" to-port="1"/>
		<edge from-layer="551" from-port="2" to-layer="552" to-port="0"/>
		<edge from-layer="552" from-port="1" to-layer="553" to-port="0"/>
		<edge from-layer="553" from-port="2" to-layer="555" to-port="0"/>
		<edge from-layer="553" from-port="2" to-layer="570" to-port="0"/>
		<edge from-layer="554" from-port="0" to-layer="555" to-port="1"/>
		<edge from-layer="555" from-port="2" to-layer="557" to-port="0"/>
		<edge from-layer="556" from-port="0" to-layer="557" to-port="1"/>
		<edge from-layer="557" from-port="2" to-layer="558" to-port="0"/>
		<edge from-layer="558" from-port="1" to-layer="560" to-port="0"/>
		<edge from-layer="559" from-port="0" to-layer="560" to-port="1"/>
		<edge from-layer="560" from-port="2" to-layer="562" to-port="0"/>
		<edge from-layer="561" from-port="0" to-layer="562" to-port="1"/>
		<edge from-layer="562" from-port="2" to-layer="563" to-port="0"/>
		<edge from-layer="563" from-port="1" to-layer="565" to-port="0"/>
		<edge from-layer="564" from-port="0" to-layer="565" to-port="1"/>
		<edge from-layer="565" from-port="2" to-layer="567" to-port="0"/>
		<edge from-layer="566" from-port="0" to-layer="567" to-port="1"/>
		<edge from-layer="567" from-port="2" to-layer="568" to-port="0"/>
		<edge from-layer="568" from-port="1" to-layer="574" to-port="0"/>
		<edge from-layer="569" from-port="0" to-layer="570" to-port="1"/>
		<edge from-layer="570" from-port="2" to-layer="572" to-port="0"/>
		<edge from-layer="571" from-port="0" to-layer="572" to-port="1"/>
		<edge from-layer="572" from-port="2" to-layer="573" to-port="0"/>
		<edge from-layer="573" from-port="1" to-layer="574" to-port="1"/>
		<edge from-layer="574" from-port="2" to-layer="576" to-port="0"/>
		<edge from-layer="575" from-port="0" to-layer="576" to-port="1"/>
		<edge from-layer="576" from-port="2" to-layer="578" to-port="0"/>
		<edge from-layer="577" from-port="0" to-layer="578" to-port="1"/>
		<edge from-layer="578" from-port="2" to-layer="579" to-port="0"/>
		<edge from-layer="579" from-port="1" to-layer="581" to-port="0"/>
		<edge from-layer="579" from-port="1" to-layer="633" to-port="0"/>
		<edge from-layer="580" from-port="0" to-layer="581" to-port="1"/>
		<edge from-layer="581" from-port="2" to-layer="583" to-port="0"/>
		<edge from-layer="582" from-port="0" to-layer="583" to-port="1"/>
		<edge from-layer="583" from-port="2" to-layer="585" to-port="0"/>
		<edge from-layer="584" from-port="0" to-layer="585" to-port="1"/>
		<edge from-layer="585" from-port="2" to-layer="587" to-port="0"/>
		<edge from-layer="586" from-port="0" to-layer="587" to-port="1"/>
		<edge from-layer="587" from-port="2" to-layer="590" to-port="0"/>
		<edge from-layer="588" from-port="0" to-layer="590" to-port="1"/>
		<edge from-layer="589" from-port="0" to-layer="590" to-port="2"/>
		<edge from-layer="590" from-port="4" to-layer="593" to-port="1"/>
		<edge from-layer="590" from-port="5" to-layer="592" to-port="0"/>
		<edge from-layer="590" from-port="3" to-layer="591" to-port="0"/>
		<edge from-layer="591" from-port="1" to-layer="593" to-port="0"/>
		<edge from-layer="592" from-port="1" to-layer="593" to-port="2"/>
		<edge from-layer="593" from-port="3" to-layer="594" to-port="1"/>
		<edge from-layer="594" from-port="2" to-layer="597" to-port="0"/>
		<edge from-layer="595" from-port="0" to-layer="597" to-port="1"/>
		<edge from-layer="596" from-port="0" to-layer="597" to-port="2"/>
		<edge from-layer="597" from-port="7" to-layer="617" to-port="0"/>
		<edge from-layer="597" from-port="8" to-layer="621" to-port="0"/>
		<edge from-layer="597" from-port="6" to-layer="613" to-port="0"/>
		<edge from-layer="597" from-port="9" to-layer="625" to-port="0"/>
		<edge from-layer="597" from-port="5" to-layer="628" to-port="2"/>
		<edge from-layer="597" from-port="10" to-layer="628" to-port="7"/>
		<edge from-layer="597" from-port="4" to-layer="607" to-port="0"/>
		<edge from-layer="597" from-port="3" to-layer="599" to-port="0"/>
		<edge from-layer="598" from-port="0" to-layer="599" to-port="1"/>
		<edge from-layer="599" from-port="2" to-layer="601" to-port="0"/>
		<edge from-layer="600" from-port="0" to-layer="601" to-port="1"/>
		<edge from-layer="601" from-port="2" to-layer="603" to-port="0"/>
		<edge from-layer="602" from-port="0" to-layer="603" to-port="1"/>
		<edge from-layer="603" from-port="2" to-layer="605" to-port="0"/>
		<edge from-layer="604" from-port="0" to-layer="605" to-port="1"/>
		<edge from-layer="605" from-port="2" to-layer="628" to-port="0"/>
		<edge from-layer="606" from-port="0" to-layer="607" to-port="1"/>
		<edge from-layer="607" from-port="2" to-layer="609" to-port="0"/>
		<edge from-layer="608" from-port="0" to-layer="609" to-port="1"/>
		<edge from-layer="609" from-port="2" to-layer="611" to-port="0"/>
		<edge from-layer="610" from-port="0" to-layer="611" to-port="1"/>
		<edge from-layer="611" from-port="2" to-layer="628" to-port="1"/>
		<edge from-layer="612" from-port="0" to-layer="613" to-port="1"/>
		<edge from-layer="613" from-port="2" to-layer="615" to-port="0"/>
		<edge from-layer="614" from-port="0" to-layer="615" to-port="1"/>
		<edge from-layer="615" from-port="2" to-layer="628" to-port="3"/>
		<edge from-layer="616" from-port="0" to-layer="617" to-port="1"/>
		<edge from-layer="617" from-port="2" to-layer="619" to-port="0"/>
		<edge from-layer="618" from-port="0" to-layer="619" to-port="1"/>
		<edge from-layer="619" from-port="2" to-layer="628" to-port="4"/>
		<edge from-layer="620" from-port="0" to-layer="621" to-port="1"/>
		<edge from-layer="621" from-port="2" to-layer="623" to-port="0"/>
		<edge from-layer="622" from-port="0" to-layer="623" to-port="1"/>
		<edge from-layer="623" from-port="2" to-layer="628" to-port="5"/>
		<edge from-layer="624" from-port="0" to-layer="625" to-port="1"/>
		<edge from-layer="625" from-port="2" to-layer="627" to-port="0"/>
		<edge from-layer="626" from-port="0" to-layer="627" to-port="1"/>
		<edge from-layer="627" from-port="2" to-layer="628" to-port="6"/>
		<edge from-layer="628" from-port="8" to-layer="630" to-port="0"/>
		<edge from-layer="629" from-port="0" to-layer="630" to-port="1"/>
		<edge from-layer="630" from-port="2" to-layer="715" to-port="1"/>
		<edge from-layer="631" from-port="0" to-layer="678" to-port="0"/>
		<edge from-layer="632" from-port="0" to-layer="633" to-port="1"/>
		<edge from-layer="633" from-port="2" to-layer="635" to-port="0"/>
		<edge from-layer="634" from-port="0" to-layer="635" to-port="1"/>
		<edge from-layer="635" from-port="2" to-layer="636" to-port="0"/>
		<edge from-layer="636" from-port="1" to-layer="637" to-port="0"/>
		<edge from-layer="637" from-port="2" to-layer="639" to-port="0"/>
		<edge from-layer="637" from-port="2" to-layer="654" to-port="0"/>
		<edge from-layer="638" from-port="0" to-layer="639" to-port="1"/>
		<edge from-layer="639" from-port="2" to-layer="641" to-port="0"/>
		<edge from-layer="640" from-port="0" to-layer="641" to-port="1"/>
		<edge from-layer="641" from-port="2" to-layer="642" to-port="0"/>
		<edge from-layer="642" from-port="1" to-layer="644" to-port="0"/>
		<edge from-layer="643" from-port="0" to-layer="644" to-port="1"/>
		<edge from-layer="644" from-port="2" to-layer="646" to-port="0"/>
		<edge from-layer="645" from-port="0" to-layer="646" to-port="1"/>
		<edge from-layer="646" from-port="2" to-layer="647" to-port="0"/>
		<edge from-layer="647" from-port="1" to-layer="649" to-port="0"/>
		<edge from-layer="648" from-port="0" to-layer="649" to-port="1"/>
		<edge from-layer="649" from-port="2" to-layer="651" to-port="0"/>
		<edge from-layer="650" from-port="0" to-layer="651" to-port="1"/>
		<edge from-layer="651" from-port="2" to-layer="652" to-port="0"/>
		<edge from-layer="652" from-port="1" to-layer="658" to-port="0"/>
		<edge from-layer="653" from-port="0" to-layer="654" to-port="1"/>
		<edge from-layer="654" from-port="2" to-layer="656" to-port="0"/>
		<edge from-layer="655" from-port="0" to-layer="656" to-port="1"/>
		<edge from-layer="656" from-port="2" to-layer="657" to-port="0"/>
		<edge from-layer="657" from-port="1" to-layer="658" to-port="1"/>
		<edge from-layer="658" from-port="2" to-layer="660" to-port="0"/>
		<edge from-layer="659" from-port="0" to-layer="660" to-port="1"/>
		<edge from-layer="660" from-port="2" to-layer="662" to-port="0"/>
		<edge from-layer="661" from-port="0" to-layer="662" to-port="1"/>
		<edge from-layer="662" from-port="2" to-layer="663" to-port="0"/>
		<edge from-layer="663" from-port="1" to-layer="665" to-port="0"/>
		<edge from-layer="664" from-port="0" to-layer="665" to-port="1"/>
		<edge from-layer="665" from-port="2" to-layer="667" to-port="0"/>
		<edge from-layer="666" from-port="0" to-layer="667" to-port="1"/>
		<edge from-layer="667" from-port="2" to-layer="669" to-port="0"/>
		<edge from-layer="668" from-port="0" to-layer="669" to-port="1"/>
		<edge from-layer="669" from-port="2" to-layer="671" to-port="0"/>
		<edge from-layer="670" from-port="0" to-layer="671" to-port="1"/>
		<edge from-layer="671" from-port="2" to-layer="674" to-port="0"/>
		<edge from-layer="672" from-port="0" to-layer="674" to-port="1"/>
		<edge from-layer="673" from-port="0" to-layer="674" to-port="2"/>
		<edge from-layer="674" from-port="3" to-layer="675" to-port="0"/>
		<edge from-layer="674" from-port="5" to-layer="676" to-port="0"/>
		<edge from-layer="674" from-port="4" to-layer="677" to-port="1"/>
		<edge from-layer="675" from-port="1" to-layer="677" to-port="0"/>
		<edge from-layer="676" from-port="1" to-layer="677" to-port="2"/>
		<edge from-layer="677" from-port="3" to-layer="678" to-port="1"/>
		<edge from-layer="678" from-port="2" to-layer="681" to-port="0"/>
		<edge from-layer="679" from-port="0" to-layer="681" to-port="1"/>
		<edge from-layer="680" from-port="0" to-layer="681" to-port="2"/>
		<edge from-layer="681" from-port="6" to-layer="697" to-port="0"/>
		<edge from-layer="681" from-port="7" to-layer="701" to-port="0"/>
		<edge from-layer="681" from-port="4" to-layer="691" to-port="0"/>
		<edge from-layer="681" from-port="8" to-layer="705" to-port="0"/>
		<edge from-layer="681" from-port="9" to-layer="709" to-port="0"/>
		<edge from-layer="681" from-port="5" to-layer="712" to-port="2"/>
		<edge from-layer="681" from-port="10" to-layer="712" to-port="7"/>
		<edge from-layer="681" from-port="3" to-layer="683" to-port="0"/>
		<edge from-layer="682" from-port="0" to-layer="683" to-port="1"/>
		<edge from-layer="683" from-port="2" to-layer="685" to-port="0"/>
		<edge from-layer="684" from-port="0" to-layer="685" to-port="1"/>
		<edge from-layer="685" from-port="2" to-layer="687" to-port="0"/>
		<edge from-layer="686" from-port="0" to-layer="687" to-port="1"/>
		<edge from-layer="687" from-port="2" to-layer="689" to-port="0"/>
		<edge from-layer="688" from-port="0" to-layer="689" to-port="1"/>
		<edge from-layer="689" from-port="2" to-layer="712" to-port="0"/>
		<edge from-layer="690" from-port="0" to-layer="691" to-port="1"/>
		<edge from-layer="691" from-port="2" to-layer="693" to-port="0"/>
		<edge from-layer="692" from-port="0" to-layer="693" to-port="1"/>
		<edge from-layer="693" from-port="2" to-layer="695" to-port="0"/>
		<edge from-layer="694" from-port="0" to-layer="695" to-port="1"/>
		<edge from-layer="695" from-port="2" to-layer="712" to-port="1"/>
		<edge from-layer="696" from-port="0" to-layer="697" to-port="1"/>
		<edge from-layer="697" from-port="2" to-layer="699" to-port="0"/>
		<edge from-layer="698" from-port="0" to-layer="699" to-port="1"/>
		<edge from-layer="699" from-port="2" to-layer="712" to-port="3"/>
		<edge from-layer="700" from-port="0" to-layer="701" to-port="1"/>
		<edge from-layer="701" from-port="2" to-layer="703" to-port="0"/>
		<edge from-layer="702" from-port="0" to-layer="703" to-port="1"/>
		<edge from-layer="703" from-port="2" to-layer="712" to-port="4"/>
		<edge from-layer="704" from-port="0" to-layer="705" to-port="1"/>
		<edge from-layer="705" from-port="2" to-layer="707" to-port="0"/>
		<edge from-layer="706" from-port="0" to-layer="707" to-port="1"/>
		<edge from-layer="707" from-port="2" to-layer="712" to-port="5"/>
		<edge from-layer="708" from-port="0" to-layer="709" to-port="1"/>
		<edge from-layer="709" from-port="2" to-layer="711" to-port="0"/>
		<edge from-layer="710" from-port="0" to-layer="711" to-port="1"/>
		<edge from-layer="711" from-port="2" to-layer="712" to-port="6"/>
		<edge from-layer="712" from-port="8" to-layer="714" to-port="0"/>
		<edge from-layer="713" from-port="0" to-layer="714" to-port="1"/>
		<edge from-layer="714" from-port="2" to-layer="715" to-port="2"/>
		<edge from-layer="715" from-port="3" to-layer="716" to-port="0"/>
	</edges>
	<meta_data>
		<MO_version value="2021.4.2-3974-e2a469a3450-releases/2021/4"/>
		<cli_parameters>
			<caffe_parser_path value="DIR"/>
			<data_type value="FP16"/>
			<disable_nhwc_to_nchw value="False"/>
			<disable_omitting_optional value="False"/>
			<disable_resnet_optimization value="False"/>
			<disable_weights_compression value="False"/>
			<enable_concat_optimization value="False"/>
			<enable_flattening_nested_params value="False"/>
			<enable_ssd_gluoncv value="False"/>
			<extensions value="DIR"/>
			<framework value="onnx"/>
			<freeze_placeholder_with_value value="{}"/>
			<generate_deprecated_IR_V7 value="False"/>
			<input_model value="DIR/2022.5.13.onnx"/>
			<input_model_is_text value="False"/>
			<input_shape value="[1,3,480,480]"/>
			<k value="DIR/CustomLayersMapping.xml"/>
			<keep_shape_ops value="True"/>
			<legacy_ir_generation value="False"/>
			<legacy_mxnet_model value="False"/>
			<log_level value="ERROR"/>
			<mean_scale_values value="{}"/>
			<mean_values value="()"/>
			<model_name value="2022.5.13"/>
			<output_dir value="DIR"/>
			<placeholder_data_types value="{}"/>
			<placeholder_shapes value="[  1   3 480 480]"/>
			<progress value="False"/>
			<remove_memory value="False"/>
			<remove_output_softmax value="False"/>
			<reverse_input_channels value="False"/>
			<save_params_from_nd value="False"/>
			<scale_values value="()"/>
			<silent value="False"/>
			<static_shape value="False"/>
			<stream_output value="False"/>
			<transform value=""/>
			<unset unset_cli_parameters="batch, counts, disable_fusing, disable_gfusing, finegrain_fusing, input, input_checkpoint, input_meta_graph, input_proto, input_symbol, mean_file, mean_file_offsets, move_to_preprocess, nd_prefix_name, output, pretrained_model_name, saved_model_dir, saved_model_tags, scale, tensorboard_logdir, tensorflow_custom_layer_libraries, tensorflow_custom_operations_config_update, tensorflow_object_detection_api_pipeline_config, tensorflow_use_custom_operations_config, transformations_config"/>
		</cli_parameters>
	</meta_data>
</net>
